saved_model.pt (torch, 16944 bytes, 7 tensors)

network.0.weight f4 [64, 10]
00000000: 4cd9 6ebd cdf7 863e 1e4b 63be 1cf1 d33d
00000010: 82a5 6d3e 1eeb 743e e648 643e 40c2 febb
00000020: 682c 6dbd ab51 803e eecb 2a3e 2edb 673e
00000030: 10f8 db3c 3a50 eabd c483 1fbd b540 22be
00000040: 1e2b 373e e6cf 643e 34b4 353e 8ce2 cb3d
00000050: 1ecf 383e 443f 093e b01f 43be b66b 31be
00000060: f487 a73d 0fd6 8d3e 706f 293d 769f 89be
00000070: bd75 69be 4885 cc3d 5212 783e 40b4 0cbc
00000080: 1df7 8e3e 0719 6ebe 2873 4c3d 824f 6c3e
00000090: 35e3 17be fc66 c83d e002 0e3c b24f 063e
000000a0: 50d8 38bd 40be 52bc 798d 8cbe 0c36 2ebe
000000b0: bca3 e8bd f13c 8ebe 1a5a e6bd 2a9e 123e
000000c0: be3c 603e e21e 263e d640 05be 3870 913d
000000d0: f6dd 96bd a75c 8ebe 7aa9 11be 585a 6e3d
000000e0: 488f 3b3d 7833 0b3e f5e0 17be 9caf 2a3e
000000f0: 87bd 3abe 80c4 263b 4037 003c f67c 2c3e
00000100: ee9e 36be 3f7c 883e d28e 053e 4020 2c3c
00000110: a22b 623e e2f1 8dbe e0a4 69bc f623 f8bd
00000120: 0ebe 1b3e 27e6 843e 818d 74be a0ca c43d
00000130: 44bf 10be 9e18 8cbe a8c5 903d 5a9a 403e
00000140: d727 72be eba7 803e 6bec 803e 0417 f4bd
00000150: bee1 433e 86f7 f2bd 98fa 133d 409a 2a3c
00000160: 80e5 553b 6829 61be bc99 303e 5e34 6abe
00000170: c8a4 9b3d c618 37be f850 2f3d 68f7 203e
00000180: 6c15 1cbd 20ce f03c 26c1 263e eacc 533e
00000190: 93c8 803e ceab ecbd 1838 483d 8029 2ebb
000001a0: dee2 f6bd 181c 2ebe 4684 4e3e 3805 a3bd
000001b0: a00f e93d ea65 2c3e 32de 2f3e 7200 d4bd
000001c0: 2094 bc3c c484 afbd 45dd 843e 1025 4a3e
000001d0: 48ac 2c3e cef7 2c3e ff92 893e 782d 0abd
000001e0: 80ac 0a3e d8f3 873d c89f f93d 24b7 933d
000001f0: 0635 763e 00b1 9d3a 2082 463c 3477 89be
00000200: 1891 df3d 18dc b6bd 34e9 4b3e 2c9f 2e3e
00000210: 642d 62be 0ae3 83be 36fa 483e 0cdf d33d
00000220: 0233 58be 8827 da3d 88c0 08bd 72f1 0d3e
00000230: fc2e e4bd 007a fc3a bc97 81be 3e4c 27be
00000240: 4e47 293e 8f0f 823e 80d7 ed3d 9099 083e
00000250: e461 d3bd 065b 583e e0ae c9bd c2cb 8ebe
00000260: a27c 3cbe 8ca0 80bd 50c2 c63c f057 dc3c
00000270: 801c e53b faa7 e2bd 2339 59be 6c5c d83d
00000280: c6f3 a8bd 9a7b 6f3e 7a79 623e 34af 953d
00000290: 66e5 abbd e6e9 9ebd 50ed 1d3e 0a5a 123e
000002a0: 84c5 c93d 8c38 cb3d 166f 5c3e 1730 74be
000002b0: 1662 5e3e 6c22 0a3e 646f 74be 3025 14bd
000002c0: accc ca3d 10e1 193d 2037 50bc 00fd 1ebb
000002d0: 9a63 43be aafd 603e 60ab 503c 2506 913e
000002e0: e0ec 7cbc 406b d53b be26 1d3e 37eb 2bbe
000002f0: 26c7 a3bd 4c51 533e 0c83 473e d016 d63c
00000300: 2569 88be 46aa 44be 7e4e 693e e036 bcbd
00000310: 8072 283e da5b a0bd d897 793d 16ad 33be
00000320: fc1d 49be cdaa 39be f654 67be 0d78 87be
00000330: 30c8 963c 8c68 dd3d d4b6 e03d 003b cf3d
00000340: b260 2d3e cacd 0a3e 662a 193e c4e0 5b3e
00000350: 36bd 5e3e 9e30 473e 706b 133d a724 13be
00000360: e858 ea3d ce04 423e d166 7cbe 07e3 29be
00000370: 5ad3 92bd 646c 223e b0d3 7b3d 5e8c b6bd
00000380: c096 76bd 946f 80be c883 5f3d bc78 e4bd
00000390: 6e7b 67be 353c 823e ba0b c4bd 08f6 283d
000003a0: a1b8 803e c2ea 663e 7029 c5bc 82f1 7bbe
000003b0: 0073 f5ba 90ba c8bc 7ace 4bbe 5c9e 74be
000003c0: 8017 fabc 6b3b 903e 0d42 913e f2d0 12be
000003d0: 80d6 2dbe 6fe8 17be 0bdf 8d3e d877 8fbe
000003e0: c814 283e 88d1 dcbd 560c 8dbd 2a5d a5bd
000003f0: 5777 8b3e a02b 383c 682e d43d 9e4b 5dbe
-0.0583127 0.26360932 -0.22196624 0.10348722 0.23207667 0.23917815 0.22293434 -0.0077746212
-0.057903677 0.25062308 0.16679356 0.22642204 0.026851684 -0.11441083 -0.03894402 -0.15844996
0.17887542 0.22344932 0.17744523 0.0995532 0.18047759 0.1340304 -0.19055057 -0.17326245
0.08180228 0.27702376 0.04136604 -0.26879472 -0.2279882 0.09986359 0.24225739 -0.008587897
0.27922907 -0.23251735 0.04991451 0.23077205 -0.14832766 0.09785268 0.008667678 0.13116339
-0.045128167 -0.012862742 -0.27451685 -0.17012805 -0.11359355 -0.2778087 -0.11247654 0.14318147
0.21898171 0.16222718 -0.13013014 0.07101482 -0.073665544 -0.27805063 -0.14224806 0.058191627
0.04579094 0.13593853 -0.14831908 0.16668552 -0.18236361 0.0025446713 0.007825673 0.16844544
-0.17834064 0.26657292 0.13042763 0.010505736 0.22086957 -0.27723604 -0.014260501 -0.12116234
0.15209219 0.25956842 -0.23882104 0.0960896 -0.14135462 -0.2736253 0.0706895 0.1880888
-0.2364801 0.2512811 0.25180373 -0.119184524 0.19129083 -0.118636176 0.036127657 0.010412753
0.0032638013 -0.21988451 0.17246145 -0.22871539 0.07599789 -0.17880544 0.042801827 0.15719378
-0.038106367 0.029395163 0.16284618 0.20683637 0.25153026 -0.11556207 0.04888162 -0.002657503
-0.1205499 -0.17002904 0.20167646 -0.0795998 0.11379933 0.16835752 0.17174605 -0.103516474
0.02301985 -0.08570245 0.25950065 0.197407 0.16862595 0.16891405 0.26869962 -0.03373477
0.13542366 0.066383064 0.12188679 0.07212666 0.24043664 0.00120309 0.012115985 -0.26848757
0.10916346 -0.08928698 0.19913179 0.17052907 -0.22087628 -0.25759155 0.19626698 0.10345277
-0.21113208 0.10652071 -0.033386737 0.13861635 -0.11141774 0.0019262433 -0.25311077 -0.16337678
0.16531107 0.25402495 0.11613369 0.1333983 -0.103214055 0.21128473 -0.09847808 -0.2788983
-0.18406919 -0.06280622 0.024262577 0.0268974 0.006991923 -0.11067195 -0.21213202 0.10564503
-0.08249621 0.23386994 0.22116652 0.07308808 -0.08393364 -0.07759456 0.15422559 0.1429216
0.09852126 0.09922895 0.21526751 -0.2384647 0.21717104 0.13489693 -0.23870617 -0.036168277
0.09902319 0.037568152 -0.012708455 -0.0024259686 -0.19080964 0.21971765 0.0127361715 0.28325
-0.015437335 0.0065130293 0.1534681 -0.16788946 -0.07996969 0.20636481 0.19483584 0.026133925
-0.2664272 -0.19205579 0.22783849 -0.09190154 0.16449928 -0.07830019 0.060935825 -0.17546496
-0.19640344 -0.18131562 -0.22591004 -0.2645878 0.018406004 0.10810956 0.10972372 0.10118675
0.16931418 0.13555065 0.1495758 0.2147246 0.21751866 0.1945214 0.035991132 -0.1436945
0.11442739 0.18947145 -0.24648596 -0.1659051 -0.07169218 0.1586166 0.061481178 -0.08913492
-0.06020236 -0.25085127 0.054569036 -0.11155841 -0.22605678 0.2543656 -0.09572549 0.04125026
0.2514086 0.2255049 -0.02406761 -0.24603847 -0.0018726289 -0.024503022 -0.19902983 -0.23888534
-0.030528784 0.28170332 0.28370705 -0.14337519 -0.16976357 -0.1483476 0.2770923 -0.2802112
0.16414177 -0.107821524 -0.068871185 -0.0807441 0.27239487 0.01124087 0.10360414 -0.21610877

network.0.bias f4 [64]
00000000: 0000 0000 0000 0000 0000 0000 0000 0000
00000010: 0000 0000 0000 0000 0000 0000 0000 0000
00000020: 0000 0000 0000 0000 0000 0000 0000 0000
00000030: 0000 0000 0000 0000 0000 0000 0000 0000
00000040: 0000 0000 0000 0000 0000 0000 0000 0000
00000050: 0000 0000 0000 0000 0000 0000 0000 0000
00000060: 0000 0000 0000 0000 0000 0000 0000 0000
00000070: 0000 0000 0000 0000 0000 0000 0000 0000
00000080: 0000 0000 0000 0000 0000 0000 0000 0000
00000090: 0000 0000 0000 0000 0000 0000 0000 0000
000000a0: 0000 0000 0000 0000 0000 0000 0000 0000
000000b0: 0000 0000 0000 0000 0000 0000 0000 0000
000000c0: 0000 0000 0000 0000 0000 0000 0000 0000
000000d0: 0000 0000 0000 0000 0000 0000 0000 0000
000000e0: 0000 0000 0000 0000 0000 0000 0000 0000
000000f0: 0000 0000 0000 0000 0000 0000 0000 0000
0.0 0.0 0.0 0.0 0.0 0.0 0.0 0.0
0.0 0.0 0.0 0.0 0.0 0.0 0.0 0.0
0.0 0.0 0.0 0.0 0.0 0.0 0.0 0.0
0.0 0.0 0.0 0.0 0.0 0.0 0.0 0.0
0.0 0.0 0.0 0.0 0.0 0.0 0.0 0.0
0.0 0.0 0.0 0.0 0.0 0.0 0.0 0.0
0.0 0.0 0.0 0.0 0.0 0.0 0.0 0.0
0.0 0.0 0.0 0.0 0.0 0.0 0.0 0.0

network.2.weight f4 [32, 64]
00000000: 9a77 06be f036 6c3d a066 0b3c 08b7 79bd
00000010: e876 7ebd 4851 073e 7020 75bd f413 50be
00000020: 309b 8bbd f2ae 163e bc67 0b3e 6ca5 06be
00000030: ce37 403e 90f0 ccbd 2acc 7cbe 74af 7cbe
00000040: b294 7abe f669 51be 3609 2b3e 4a24 133e
00000050: d817 83bd f86e c5bd bc43 453e e871 8dbd
00000060: 869e 5bbe 2075 6abc d43a 6d3e b83f 3bbd
00000070: 8010 f5bb bee3 0e3e 62cf 40be b8f2 393d
00000080: 8e47 5fbe f07a f5bc 0cae 533e 0819 003e
00000090: 2227 7fbe b296 0d3e f478 e2bd 20eb 993d
000000a0: 0000 df3d c696 27be f0c8 423d a038 1d3c
000000b0: 68b2 31be 386e 45be 04af 68be e835 3fbd
000000c0: 706f 1a3e 080f 0ebe 602a 073c 426e 16be
000000d0: ce94 37be 9247 05be 1c39 9bbd f204 5b3e
000000e0: 2ad3 6a3e f01e 63be 3881 e0bd ecec 2dbe
000000f0: d23f 6abe 64f1 253e 4e81 5abe 6420 cb3d
00000100: 9c44 40be 60df 29bd 4ac7 6f3e cc5b 8e3d
00000110: 06a8 643e 86c6 443e 8ec0 57be 2078 e73c
00000120: 20e2 333e e461 5c3e e0be 1bbd 7c19 6abe
00000130: 2880 50bd aa8f 73be 22bd 48be 50a6 d53d
00000140: 3038 363d 2e77 7dbe 00f2 983b 0efc 30be
00000150: 4051 15bd 50d1 6b3e 7430 fbbd e241 6b3e
00000160: d0a1 fabc 684a ba3d 1667 5abe 48d1 ccbd
00000170: c64e 34be 70ed 16bd 4e10 533e 4061 f23c
00000180: d8fb c4bd daad 0bbe f868 b5bd f071 abbd
00000190: 784f 0b3e 50a9 c33d 60ea 3d3e c0d9 383c
000001a0: 5a04 1f3e e406 7f3e 2c2f 0ebe c2d0 3dbe
000001b0: d034 5c3e f07f b3bc 98e5 593d 44dc 4fbe
000001c0: f629 31be 4698 2fbe c6f5 28be c073 21be
000001d0: 7a9a 1ebe 209e e8bd 688e 353e 8024 03bc
000001e0: 161b 2bbe 368b 683e 4808 593e 1c58 793e
000001f0: e04f 67bd f43a 06be 00f7 ad3a 4a1c 513e
00000200: 60cd 323c 028d 28be ce2c 703e 302a 74bd
00000210: b4e4 1a3e e844 8a3d 2cb5 0dbe bc3f 77be
00000220: 44e2 99bd 7c8a 5c3e 00b5 04bd 8019 7ebc
00000230: ec16 993d 9a81 5d3e 481c b5bd e0ff 13bc
00000240: 2ce8 0d3e 6876 373e 84b4 e13d f816 493d
00000250: 586e 0ebe 14b7 e6bd 6411 68be 30a7 033d
00000260: 68f5 7ebd 585e d2bd 44bc ac3d 6495 febd
00000270: 84e6 d73d fc6a 073e b02e 63be 0850 763e
00000280: aae8 69be 801f 53bb 0a66 793e e477 dabd
00000290: 68d6 8f3d 6481 c3bd 8e08 4f3e 80d5 383c
000002a0: 0c05 343e eac9 45be 7218 3b3e b0a9 dcbc
000002b0: 42d1 30be a67f 1abe 188f 39be 4040 9d3c
000002c0: 4068 1f3c d020 92bc 6013 62be a87a 3d3d
000002d0: 3ee2 64be 205c 0ebc 146c 133e eae2 40be
000002e0: a67f 233e 82a2 11be 8074 163e 7c60 a23d
000002f0: ee65 73be 2403 0cbe e424 8a3d ecaf 24be
00000300: 4c09 563e 3459 3e3e aa20 793e e42e c9bd
00000310: 4294 5abe dc18 b4bd 8245 3ebe b230 1dbe
00000320: 7257 1cbe 28ab 4dbe 08e8 99bd 865f 69be
00000330: c0ac 7b3c b452 1e3e 2c98 23be 087e 4bbe
00000340: 0069 863b f447 543e 609f ad3c 622b 1abe
00000350: 682a c13d b678 563e 18da 21be 4097 33bc
00000360: 002f e93b 6003 b73c 5230 7cbe ac1b fbbd
00000370: 4a66 12be ecef b2bd 8204 4e3e e0f6 ff3c
00000380: 60a7 3bbe 68d7 003d 604c a4bd 1059 3c3e
00000390: 161f 44be b096 193e a830 cf3d 38ef d9bd
000003a0: 9044 b43c 0ec7 23be 8831 70bd ccb9 eabd
000003b0: 52d7 5b3e f0fa 79bd 84a6 fc3d ae9b 47be
000003c0: d67e 0cbe 48cd 283d ec4f a4bd b0de 32be
000003d0: 2cc2 f2bd 4876 1dbe 9489 123e c4e4 4e3e
000003e0: fa4d 60be e284 093e fab0 45be 5655 42be
000003f0: 4aec 4b3e 9871 0bbe c0eb 643c 08fd 763e
-0.13131562 0.05766958 0.008508354 -0.060965568 -0.062125117 0.132146 -0.059845388 -0.20320112
-0.06816709 0.14715174 0.1361379 -0.13149041 0.18771288 -0.10006821 -0.24687257 -0.24676305
-0.24470785 -0.20450577 0.16702732 0.14369312 -0.06401032 -0.09640306 0.1926412 -0.069064915
-0.2144719 -0.014310151 0.23166972 -0.045715064 -0.0074787736 0.13954064 -0.1882911 0.04539749
-0.2180464 -0.029965848 0.20671862 0.12509549 -0.24917272 0.13827017 -0.11058226 0.0751555
0.10888672 -0.16366109 0.04755491 0.00959602 -0.17353213 -0.19280326 -0.22723013 -0.04668227
0.15081573 -0.13872921 0.008249849 -0.14690498 -0.17927858 -0.13015583 -0.07579252 0.21388605
0.22932115 -0.2217977 -0.109621465 -0.1698491 -0.22875908 0.16205364 -0.21338388 0.099182874
-0.18776172 -0.041472793 0.23415866 0.069511026 0.22329721 0.19216356 -0.21069548 0.028255522
0.17566729 0.21521717 -0.03802383 -0.22861284 -0.05090347 -0.23785272 -0.19603398 0.10432112
0.04448718 -0.24752495 0.0046675205 -0.17283651 -0.03645444 0.23029065 -0.12265101 0.22974351
-0.030594736 0.09096223 -0.21328387 -0.10000855 -0.17608175 -0.03684753 0.20611688 0.029587388
-0.09618348 -0.13640538 -0.08857912 -0.08371341 0.13604534 0.09553778 0.18546438 0.011282384
0.15529004 0.24904972 -0.13885182 -0.18536666 0.21504521 -0.021911591 0.053197473 -0.20298868
-0.17301163 -0.17147931 -0.16500005 -0.15766811 -0.15488616 -0.11358285 0.17730105 -0.008004308
-0.16709551 0.22709355 0.21194565 0.24350017 -0.05647266 -0.13108426 0.0013272464 0.20420948
0.010913223 -0.1646004 0.23454592 -0.059610546 0.15126306 0.06751424 -0.13838643 -0.24145406
-0.0751386 0.21537203 -0.032399178 -0.015509009 0.07475075 0.2163147 -0.08843285 -0.009033173
0.13858098 0.17916262 0.11020759 0.04909417 -0.1390928 -0.11265388 -0.22662884 0.032141864
-0.062245756 -0.10271901 0.08434346 -0.12430838 0.10542014 0.13224405 -0.22185779 0.24053967
-0.2284266 -0.003221482 0.24355331 -0.106673986 0.070233166 -0.09546164 0.20218107 0.011281371
0.1758005 -0.19315305 0.18271044 -0.026936382 -0.17267326 -0.15087757 -0.18120992 0.019195676
0.009729445 -0.017837912 -0.22077703 0.046259552 -0.2235193 -0.0086889565 0.14396697 -0.18836561
0.15966663 -0.14222148 0.14692879 0.07928559 -0.23769352 -0.13673073 0.067453176 -0.16082734
0.20901984 0.18588716 0.24328867 -0.09823397 -0.21345618 -0.08793804 -0.18581203 -0.15350607
-0.15267733 -0.20084822 -0.075149596 -0.22790346 0.015361011 0.15461236 -0.15976018 -0.19872296
0.0041018724 0.20730573 0.02119416 -0.15055612 0.094319165 0.20944485 -0.15805852 -0.010961354
0.0071161985 0.022340477 -0.24627808 -0.12261137 -0.14296833 -0.08737168 0.20118907 0.031245649
-0.18325567 0.031455427 -0.0802238 0.1839335 -0.19152483 0.14998889 0.10116702 -0.106413305
0.02200535 -0.15993902 -0.058640987 -0.11461219 0.21468857 -0.06103033 0.12336448 -0.19492981
-0.13720259 0.041211396 -0.080230564 -0.17467761 -0.118534416 -0.15377152 0.14310294 0.20204455
-0.21904746 0.13429597 -0.19305792 -0.18977866 0.19914356 -0.13617551 0.013972223 0.24119961

network.2.bias f4 [32]
00000000: 0000 0000 0000 0000 0000 0000 0000 0000
00000010: 0000 0000 0000 0000 0000 0000 0000 0000
00000020: 0000 0000 0000 0000 0000 0000 0000 0000
00000030: 0000 0000 0000 0000 0000 0000 0000 0000
00000040: 0000 0000 0000 0000 0000 0000 0000 0000
00000050: 0000 0000 0000 0000 0000 0000 0000 0000
00000060: 0000 0000 0000 0000 0000 0000 0000 0000
00000070: 0000 0000 0000 0000 0000 0000 0000 0000
0.0 0.0 0.0 0.0 0.0 0.0 0.0 0.0
0.0 0.0 0.0 0.0 0.0 0.0 0.0 0.0
0.0 0.0 0.0 0.0 0.0 0.0 0.0 0.0
0.0 0.0 0.0 0.0 0.0 0.0 0.0 0.0

network.4.weight f4 [16, 32]
00000000: 9d0a 8c3e 1148 a43e 6048 acbd 0fdc 863e
00000010: 40c6 5ebd 6e50 123e 4c4c 0cbe 6a88 7c3e
00000020: 186e e13d 3ca4 18be e666 96be fe99 33be
00000030: 7ccb f9bd 50ef afbc 8825 46bd 6b0f afbe
00000040: 8e7e 443e 023e e3bd 9b80 903e fc89 9ebe
00000050: 0583 9ebe ff7c 933e 940e 49be aa5f 5f3e
00000060: 8886 d2bd e726 9e3e daf8 313e e7f8 80be
00000070: beb1 2f3e 51c7 ab3e 3fd8 85be 6102 ae3e
00000080: 6a22 673e 8890 293d adef 11be 827c 98be
00000090: 078c a0be 15f5 9cbe 628c a1be 1fea 4ebe
000000a0: 789b fe3d c864 143e 18d6 cbbd 00c4 f33a
000000b0: 22b5 463e 3865 9cbe 2e05 ffbd b002 e4bc
000000c0: 969b a2be f890 04be 5808 63be 96e0 293e
000000d0: 46d1 2c3e 3d1c 3ebe bac5 74be 96cf 463e
000000e0: e0cc 81be 80d7 3bbc dc71 b7bd fe39 7c3e
000000f0: c710 ad3e 4bdf 863e 499e a83e 60a9 543c
00000100: 05b9 81be 2fb7 05be 90ca 1cbd 0e99 243e
00000110: e7b0 b1be 9bfb adbe 5e89 8dbe a048 503d
00000120: 0091 b6ba 15db 81be e355 66be 1129 853e
00000130: 9c7d 0dbe f132 7bbe 00f6 b53d 27f6 11be
00000140: 4362 3ebe 8e3a 793e 3a55 143e 7c5e 8f3d
00000150: 668a 4b3e 28f7 97be bea2 94be d2d2 7abe
00000160: a03b e03c 40b4 943b e4d7 f4bd ee13 323e
00000170: eac1 383e 802a 07be d8e5 3f3d d2a9 8ebe
00000180: 5a8d dcbd 2421 be3d b904 9c3e 0dbc 86be
00000190: a8e3 a73d 825d 08be 97c5 9c3e b798 19be
000001a0: 0095 0d3d 6a9f 143e 4578 b03e 18f3 253d
000001b0: 701a 84bd 40b2 febc 507e 1d3d 56ea 2c3e
000001c0: 49f6 13be b5cc 883e 6b11 8d3e 523c 0ebe
000001d0: a488 86be 9419 0f3e 4f9c a83e 6a82 243e
000001e0: bce1 e23d ac28 f13d 3e35 63be 705c 5bbd
000001f0: f0e4 c3bd 9c09 823d e98d 2ebe 9033 4bbd
00000200: 7014 fa3d 580a 3bbd 86a8 37be 5002 cfbc
00000210: 11ab aabe c095 d93b 12e8 2a3e b845 9bbd
00000220: 40ed 24bd ab05 8a3e 42cd 693e 9156 41be
00000230: 4d26 af3e 085b b83d feb2 efbd 5033 6fbd
00000240: eeb7 79be 6a90 4b3e d794 8abe 1050 293d
00000250: 9144 b0be 0a89 103e 00e6 bebc a4d5 4dbe
00000260: 1498 9c3d c7ca 19be 4a87 233e 00cc 683c
00000270: 4e2c d6bd 00f9 f13d e485 9fbd 20e7 81be
00000280: b199 af3e 1825 0ebe 6cd1 86be e0ca c23d
00000290: efb5 9b3e 1c1f d43d f9bb a33e 9efe 3e3e
000002a0: 8751 a83e 92a3 27be 90ca b8bc b8e1 703d
000002b0: e064 60bd 4318 ab3e 2985 81be 3cc9 b1bd
000002c0: f200 273e c7b2 17be b0aa 26bd 2c16 b0be
000002d0: d9e5 a83e c0ff f03b 0010 9b3b a06a 8f3d
000002e0: 87a0 9b3e aa42 443e cdce a23e 91c8 97be
000002f0: 33cb 863e 742d b43d 8627 17be 58ec 25be
00000300: 6342 9e3e 36e0 5d3e 4aca 7ebe ac45 86bd
00000310: d20f 253e 1cdd 9bbd 3ce9 933d 33eb 903e
00000320: f354 9d3e c01b 753c 60fc 323d 1393 90be
00000330: 901e 2e3d 5c95 d0bd 708e 003e a789 a03e
00000340: d2a4 7c3e 46c0 10be 629b 6b3e 9ad6 263e
00000350: 006b 3abe c0be 0f3d 7c4c 18be 8b28 9c3e
00000360: 904b cd3c 26f8 123e e49c 92be 48e2 33bd
00000370: 66cd 5ebe 3caf 86be 5ee9 453e 7ebf 743e
00000380: 4b36 3dbe 025a 89be 46b5 553e a948 8bbe
00000390: 86cd 85be 3634 9abe b872 5fbd 0095 c4ba
000003a0: edea 8f3e 701f 3dbd 0853 ae3d 10d2 6cbe
000003b0: b3b5 3cbe be41 3d3e 70cc 7fbd 8d58 12be
000003c0: 5bf6 68be 20ec 2a3d 29f4 883e 5388 9f3e
000003d0: b0cd 3bbd 3642 633e edb3 933e ca0d 94be
000003e0: 2f96 91be 1fe3 a3be ad57 b43e 515a a4be
000003f0: d68b a9be 7e2c 713e b045 943d 9e47 a9be
0.27351847 0.32086232 -0.08412242 0.26339766 -0.054388285 0.14288494 -0.1370098 0.24661413
0.11007327 -0.149064 -0.2937538 -0.17539212 -0.12197015 -0.021476418 -0.048375636 -0.3419145
0.19188902 -0.110958114 0.28223118 -0.3096465 -0.30959335 0.28806302 -0.19634467 0.21813837
-0.10279566 0.30889055 0.17380086 -0.25189897 0.17157647 0.33550504 -0.26141545 0.3398619
0.22571722 0.0413976 -0.14251585 -0.29782492 -0.31356832 -0.30655733 -0.31552416 -0.20206498
0.12431997 0.1449157 -0.099529445 0.0018597841 0.19405034 -0.30545974 -0.1245216 -0.027833313
-0.31759328 -0.12945926 -0.22171152 0.16589579 0.16876706 -0.1856546 -0.23903552 0.19415125
-0.2535162 -0.011464953 -0.08957264 0.24631497 0.33801863 0.26342234 0.32933262 0.012979835
-0.2533647 -0.1305816 -0.038279116 0.1607401 -0.34705278 -0.33981022 -0.27643865 0.05085051
-0.0013928711 -0.2536246 -0.224937 0.26007894 -0.13817447 -0.24531151 0.088848114 -0.14254056
-0.18592171 0.24338743 0.14485636 0.07000443 0.19877014 -0.29680753 -0.29030412 -0.24494484
0.027372181 0.004538089 -0.1195524 0.17390415 0.18042722 -0.13199806 0.046850055 -0.27863938
-0.10769148 0.09283665 0.30472353 -0.26315346 0.08197719 -0.1331692 0.306195 -0.14999662
0.034565926 0.14513937 0.34466758 0.040515035 -0.06450355 -0.031090856 0.03845054 0.16886267
-0.14449419 0.2671868 0.2755235 -0.13890198 -0.26276124 0.13974601 0.32931754 0.16065374
0.11078212 0.11775336 -0.22188279 -0.053554952 -0.09565151 0.06349489 -0.17046322 -0.04960972
0.122109294 -0.04566416 -0.1793538 -0.025269657 -0.33333638 0.006640166 0.1669009 -0.07581657
-0.04026532 0.2695745 0.22832206 -0.18880679 0.3420891 0.09001738 -0.11704062 -0.058398545
-0.2438657 0.19879308 -0.2706668 0.04133612 -0.34427312 0.14114776 -0.023303032 -0.20101029
0.07646194 -0.1501876 0.15969577 0.014208794 -0.10457669 0.11815071 -0.077892095 -0.25371647
0.34296945 -0.13881338 -0.2633165 0.095113516 0.30412242 0.10357496 0.3197935 0.18651816
0.328747 -0.16370991 -0.022557527 0.058809012 -0.054783702 0.33416948 -0.25296906 -0.086809605
0.16308954 -0.14814292 -0.040690124 -0.34391916 0.3298786 0.0073547065 0.004732132 0.07002759
0.3039591 0.19166055 0.317984 -0.29645208 0.26326904 0.08797732 -0.1476117 -0.16203439
0.30910024 0.21667561 -0.24881855 -0.065562576 0.16119316 -0.07610533 0.0722222 0.28304443
0.30728874 0.014960229 0.043697715 -0.2823721 0.042509615 -0.10184738 0.12554336 0.3135502
0.24672249 -0.14135846 0.23008493 0.16292801 -0.1820488 0.035094023 -0.14872926 0.30499682
0.025060445 0.14352474 -0.28635323 -0.04391697 -0.21758041 -0.26305568 0.19327304 0.23901173
-0.18477742 -0.26826483 0.20869932 -0.27203873 -0.26133364 -0.3011796 -0.054552764 -0.0014998019
0.28108922 -0.04617256 0.08511931 -0.23127007 -0.18428688 0.1848211 -0.062450826 -0.14291592
-0.22750227 0.041729093 0.2674878 0.31158695 -0.045850456 0.22193226 0.2884821 -0.2891677
-0.28434893 -0.32009217 0.3522314 -0.32100156 -0.331145 0.23552129 0.07239854 -0.33062452

network.4.bias f4 [16]
00000000: 0000 0000 0000 0000 0000 0000 0000 0000
00000010: 0000 0000 0000 0000 0000 0000 0000 0000
00000020: 0000 0000 0000 0000 0000 0000 0000 0000
00000030: 0000 0000 0000 0000 0000 0000 0000 0000
0.0 0.0 0.0 0.0 0.0 0.0 0.0 0.0
0.0 0.0 0.0 0.0 0.0 0.0 0.0 0.0

network.6.weight f4 [1, 16]
00000000: b0d8 083d 84f2 fe3e ceec 113f a091 c8be
00000010: c03f 583c d8ef 933e 42bb edbe 09c5 8ebe
00000020: e83a b6be 50a8 edbe 35ad 83be 4187 17bf
00000030: 2182 97be f5de 11bf 923b 39be 029c b83e
0.033409774 0.497944 0.5700196 -0.39173603 0.013198793 0.28893924 -0.4643193 -0.278847
-0.35591817 -0.46417475 -0.25718084 -0.59190756 -0.29591468 -0.5698083 -0.1808913 0.36056525
