saved_model.pt (torch, 16944 bytes, 7 tensors)

network.0.weight f4 [64, 10]
0.13451299 -0.24521627 0.031102031 0.035137415 0.24246743 -0.17540447 0.0975036 0.14175546
-0.058135554 0.1086207 0.13390994 -0.07878408 -0.057845563 -0.15978572 -0.024544865 -0.22506818
0.13537362 -0.27228385 -0.08085109 0.097433954 0.039246023 0.03282073 -0.022408485 -0.055145785
-0.18385854 -0.08023544 0.19497797 -0.19354366 0.27755317 -0.12011799 -0.038349614 0.15875003
0.16516265 0.0073285997 -0.16932935 0.24260345 -0.26616243 0.2580953 0.28031662 -0.122353986
0.03897339 -0.18701157 -0.031490237 0.17940551 -0.10505439 -0.27409527 0.0633944 0.16747603
0.15737921 -0.17358631 -0.044036686 0.25012192 -0.28185132 0.022240818 0.23702618 -0.12523969
0.15997475 -0.27607647 -0.22038954 -0.02882415 -0.27133447 0.04015729 0.20806664 -0.10312842
-0.14427945 -0.13534746 -0.20082894 -0.19050694 -0.21071623 -0.0013124049 0.06167054 0.14263055
0.06737152 0.1618714 0.28208163 -0.21610865 -0.26694393 -0.076021776 -0.15308408 -0.23790067
0.144671 -0.051708654 -0.2737703 0.16301653 -0.09214455 0.16915995 0.020669818 -0.000885576
0.13483071 -0.073799565 0.22898164 0.24398199 0.14496845 -0.094512 -0.1497231 -0.06750587
-0.28089353 -0.1923133 0.1592552 0.11958125 0.18225646 -0.0049119294 -0.1501842 -0.21317014
-0.087178215 0.16288346 0.16839269 0.16810104 0.123595685 -0.10877472 0.037861764 -0.015457541
-0.14911331 -0.17456591 0.12488791 0.12823221 -0.08865039 0.18226838 0.13733771 0.08050826
0.017373174 -0.058385894 -0.018990368 -0.019324034 0.17647496 0.22547248 -0.22509904 -0.15663162
0.1466406 -0.28380203 0.13998064 -0.27874517 -0.06718747 -0.004995078 0.050922364 0.09931064
-0.25308025 -0.09550661 -0.08589773 -0.26989907 -0.25913915 0.09395257 0.17012107 0.19758886
-0.21530095 -0.109295025 0.25319555 -0.091551974 -0.2509567 -0.08953118 0.00074860454 -0.12654822
0.1569972 0.0063058734 -0.24014522 -0.0899037 0.23041126 -0.2475678 -0.1881941 -0.2597526
-0.012003243 -0.086325094 0.2810448 0.16351742 -0.118511945 0.05535671 0.13864651 -0.010929078
-0.2211152 -0.21291468 0.179393 -0.24617042 0.27397475 0.2280384 0.16099715 0.056530476
0.08904952 -0.022328973 0.12752649 0.0736852 -0.17699556 -0.0847203 0.050472766 0.12691477
-0.26912642 0.0042414367 0.28252247 -0.04636386 -0.20631182 0.2253311 -0.26896048 -0.16465071
0.017035037 -0.22657254 -0.21114953 -0.27968225 0.12462103 -0.2523862 -0.1293672 -0.18808156
0.06600696 -0.2569866 0.2765799 -0.24527767 -0.2757203 -0.14743343 -0.247221 0.033453733
-0.098015115 -0.12294744 0.00014945865 0.28146693 0.14316514 0.09084484 -0.089668185 -0.08754726
-0.056776747 0.022761852 -0.11151636 -0.07972379 0.22765437 0.2826403 -0.22472972 -0.12544492
0.12835026 -0.27398813 -0.058549196 -0.17472355 -0.2261541 -0.14607409 0.113916576 -0.032127023
-0.030445486 -0.030222654 0.028844714 0.021171898 0.16244626 0.12702078 0.055327564 0.21041918
0.13530487 -0.27463293 -0.11876659 0.042110533 -0.0011017919 -0.2250157 0.12548348 0.033816338
0.23019984 0.25636187 0.07204175 0.22467235 0.052384466 0.22093305 0.09087795 0.18125743
00000000: c6bd 093e f919 7bbe b0c9 fe3c 40ec 0f3d
00000010: 6249 783e 3b9d 33be f8af c73d 5828 113e
00000020: 8c1f 6ebd 8874 de3d b01f 093e 8c59 a1bd
00000030: 78ef 6cbd de9e 23be 5012 c9bc 4678 66be
00000040: 629f 0a3e ca68 8bbe 4295 a5bd 748b c73d
00000050: 70c0 203d 086f 063d 0092 b7bc 8ce0 61bd
00000060: 6a45 3cbe 7a52 a4bd 4ea8 473e 4f30 46be
00000070: 731b 8e3e 6c00 f6bd 7c14 1dbd 5e8f 223e
00000080: 6620 293e c024 f03b ac64 2dbe 0a6d 783e
00000090: 7146 88be 1125 843e a985 8f3e ba94 fabd
000000a0: 90a2 1f3d f67f 3fbe e8fb 00bd 14b6 373e
000000b0: c226 d7bd 3756 8cbe ecd4 813d d67e 2b3e
000000c0: 0428 213e 9cc0 31be d05f 34bd fb0f 803e
000000d0: d14e 90be 6032 b63c feb6 723e d53e 00be
000000e0: 6cd0 233e e559 8dbe ccad 61be a020 ecbc
000000f0: 5aec 8abe f87b 243d 6c0f 553e fe34 d3bd
00000100: febd 13be 8698 0abe 1aa6 4dbe 4014 43be
00000110: ffc5 57be 0005 acba 409a 7c3d be0d 123e
00000120: 14fa 893d 9ec1 253e 016d 903e 964b 5dbe
00000130: e0ac 88be 4eb1 9bbd 13c2 1cbe 3c9c 73be
00000140: a224 143e 74cc 53bd 9f2b 8cbe ceed 263e
00000150: 48b6 bcbd 4438 2d3e c053 a93c 0026 68ba
00000160: 1011 0a3e 3a24 97bd 2a7a 6a3e 6ad6 793e
00000170: 9c72 143e 828f c1bd 0351 19be 8440 8abd
00000180: 47d1 8fbe c7ed 44be cc13 233e 04e7 f43d
00000190: 70a1 3a3e 40f4 a0bb e3c9 19be 4649 5abe
000001a0: 7e8a b2bd ecca 263e 226f 2c3e ae22 2c3e
000001b0: bc1f fd3d 48c5 debd f014 1b3d a041 7dbc
000001c0: 29b1 18be 68c1 32be 3cc5 ff3d 4e4f 033e
000001d0: 568e b5bd 90a4 3a3e 42a2 0c3e 84e1 a43d
000001e0: 3052 8e3c 0c26 6fbd b091 9bbc 704d 9ebc
000001f0: dab5 343e 42e2 663e 5d80 66be 0a64 20be
00000200: f428 163e 804e 91be 1657 0f3e b0b7 8ebe
00000210: 9699 89bd c0ad a3bb f893 503d 6063 cb3d
00000220: bc93 81be f898 c3bd 26eb afbd 3630 8abe
00000230: e3ad 84be 346a c03d 3834 2e3e bc54 4a3e
00000240: da77 5cbe 12d6 dfbd d9a2 813e 9a7f bbbd
00000250: 667d 80be 205c b7bd 003e 443a db95 01be
00000260: e0c3 203e 80a1 ce3b a1e8 75be 6e1f b8bd
00000270: eef0 6b3e 6a82 7dbe f4b5 40be 4bfe 84be
00000280: 40a9 44bc 36cb b0bd 1be5 8f3e 1c71 273e
00000290: 64b6 f2bd b8bd 623d 5af9 0d3e e00f 33bc
000002a0: 066c 62be 4e06 5abe ccb2 373e 1914 7cbe
000002b0: 6b46 8c3e e682 693e 70dc 243e 808c 673d
000002c0: 985f b63d 40eb b6bc 4e96 023e 44e8 963d
000002d0: 533e 35be d681 adbd 88bc 4e3d f2f5 013e
000002e0: f0ca 89be c0fb 8a3b c9a6 903e 08e8 3dbd
000002f0: 6843 53be 32bd 663e 30b5 89be 329a 28be
00000300: 108d 8b3c a202 68be 9537 58be 8332 8fbe
00000310: 5039 ff3d c438 81be d678 04be 7498 40be
00000320: a82e 873d bf93 83be e19b 8d3e 122a 7bbe
00000330: 362b 8dbe caf8 16be 8027 7dbe c806 093d
00000340: 26bc c8bd decb fbbd 00b8 1c39 6f1c 903e
00000350: e299 123e dc0c ba3d f4a3 b7bd fa4b b3bd
00000360: bc8e 68bd 1077 ba3c b062 e4bd 3a46 a3bd
00000370: 3a1e 693e 3bb6 903e 8c1f 66be a274 00be
00000380: 406e 033e 2c48 8cbe 48d1 6fbd bbea 32be
00000390: f194 67be 7294 15be 184d e93d a097 03bd
000003a0: d068 f9bc 8095 f7bc c04b ec3c b070 ad3c
000003b0: 5058 263e bc11 023e 289f 623d 2078 573e
000003c0: 5c8d 0a3e b09c 8cbe e63b f3bd 187c 2c3d
000003d0: 006a 90ba 846a 66be be7e 003e 0083 0a3d
000003e0: 82b9 6b3e dd41 833e a08a 933d 8210 663e
000003f0: 1891 563d 463c 623e 381e ba3d 8c9b 393e

network.0.bias f4 [64]
0.0 0.0 0.0 0.0 0.0 0.0 0.0 0.0
0.0 0.0 0.0 0.0 0.0 0.0 0.0 0.0
0.0 0.0 0.0 0.0 0.0 0.0 0.0 0.0
0.0 0.0 0.0 0.0 0.0 0.0 0.0 0.0
0.0 0.0 0.0 0.0 0.0 0.0 0.0 0.0
0.0 0.0 0.0 0.0 0.0 0.0 0.0 0.0
0.0 0.0 0.0 0.0 0.0 0.0 0.0 0.0
0.0 0.0 0.0 0.0 0.0 0.0 0.0 0.0
00000000: 0000 0000 0000 0000 0000 0000 0000 0000
00000010: 0000 0000 0000 0000 0000 0000 0000 0000
00000020: 0000 0000 0000 0000 0000 0000 0000 0000
00000030: 0000 0000 0000 0000 0000 0000 0000 0000
00000040: 0000 0000 0000 0000 0000 0000 0000 0000
00000050: 0000 0000 0000 0000 0000 0000 0000 0000
00000060: 0000 0000 0000 0000 0000 0000 0000 0000
00000070: 0000 0000 0000 0000 0000 0000 0000 0000
00000080: 0000 0000 0000 0000 0000 0000 0000 0000
00000090: 0000 0000 0000 0000 0000 0000 0000 0000
000000a0: 0000 0000 0000 0000 0000 0000 0000 0000
000000b0: 0000 0000 0000 0000 0000 0000 0000 0000
000000c0: 0000 0000 0000 0000 0000 0000 0000 0000
000000d0: 0000 0000 0000 0000 0000 0000 0000 0000
000000e0: 0000 0000 0000 0000 0000 0000 0000 0000
000000f0: 0000 0000 0000 0000 0000 0000 0000 0000

network.2.weight f4 [32, 64]
-0.24991965 0.03579721 0.111291885 0.09760404 -0.062265575 -0.15806204 0.07589805 0.025416642
-0.20898911 -0.1303001 -0.09097156 -0.030638307 0.23148501 0.19983098 0.13484147 0.04756257
0.12081632 -0.2200453 -0.23986045 0.10532692 -0.1398201 -0.08038229 0.18095607 0.21801466
0.157038 -0.0673275 -0.030360878 0.04671514 0.057942778 -0.0030160546 -0.15005791 0.003387183
-0.10429102 0.036672026 -0.11683002 -0.07808244 0.12436861 0.24334759 -0.061140478 0.07265738
-0.022547275 -0.14180553 -0.18301222 -0.14993331 -0.14894909 0.13259774 0.04100108 0.08712849
-0.1587899 -0.1512149 -0.13993481 -0.062201202 -0.10443747 -0.018853158 -0.047699124 0.20314142
-0.18643156 -0.014456272 -0.107010454 -0.21146652 0.24054438 0.07300946 -0.034544557 0.2401968
0.091428846 0.24708346 -0.062360346 -0.17008832 0.2020204 0.23700023 0.13380605 0.005366832
-0.15301156 -0.078231215 -0.17243958 0.12242249 0.097060055 -0.19226325 -0.19281551 -0.24711692
0.07291153 0.0663034 -0.018717408 0.22700396 0.010676295 0.13483757 0.09947765 0.055440634
-0.072365254 -0.117230564 -0.06683427 0.113390446 -0.030196577 0.135008 0.022517055 0.14291829
-0.1295667 0.12704253 -0.11049056 0.11886695 0.098314375 0.060352117 -0.11651254 -0.06357348
0.042519122 -0.023577869 -0.22695953 0.1550872 0.03295231 -0.08857638 -0.07452625 -0.20890683
-0.0119197965 -0.1287657 -0.1362307 0.06596205 -0.20218462 -0.21913606 0.16494831 -0.24507841
-0.119868845 0.072427064 0.1960088 -0.013020754 0.19241002 -0.19781536 0.13726205 -0.2163477
-0.07946518 0.14720076 -0.21651861 -0.15263858 0.122214496 -0.14063185 -0.1648983 -0.19172442
0.043522716 -0.16272268 0.20639706 -0.21054727 -0.2065619 0.12682837 -0.20890155 0.19882655
0.0032370687 -0.22479269 0.08007619 0.18535113 -0.18865079 0.09933531 -0.20585105 -0.12174839
-0.17825973 0.08738783 -0.06811926 0.1709947 -0.23642105 -0.15413016 0.15059125 0.051950783
-0.06239313 0.23104233 -0.16997728 -0.2101796 -0.1129666 0.00961858 -0.094255865 0.0405201
0.08167985 -0.14926678 0.026562512 -0.05683267 -0.20396784 0.11201137 0.12229243 -0.100690305
-0.06316951 0.18686587 -0.19338521 0.10103735 0.019415468 0.24093556 -0.20267648 -0.074394286
-0.11185831 -0.08812004 -0.06392443 -0.17949069 -0.18570527 0.043033093 0.030047536 -0.2323302
0.09473905 0.1712411 0.21391454 -0.18161061 -0.05281192 0.055154234 -0.22000265 0.053398818
0.115971684 0.02621308 0.1834045 0.208978 0.22632205 -0.10766214 0.20155829 0.21042252
0.11550161 -0.12665245 0.18156251 -0.033808827 0.12175733 0.10738981 0.20825452 0.20517814
0.009590983 -0.039623737 -0.16767728 -0.038365275 -0.18937588 0.009212524 0.17212304 0.14058036
-0.21049029 -0.041062206 -0.24835208 -0.011092842 -0.045547813 -0.21530566 0.12703687 0.1465779
-0.21267805 0.17801708 0.19752464 -0.11438832 0.15465698 0.20419595 0.065047026 0.05261883
0.17837003 0.06237915 -0.2018182 0.24918953 0.13246831 0.024484366 0.17722195 -0.037929863
0.15623716 0.16702649 0.22866541 -0.03657618 -0.06971121 -0.21028647 0.11287919 -0.00751251
00000000: f0ea 7fbe 18a0 123d 00ed e33d a0e4 c73d
00000010: 300a 7fbd 04db 21be 7070 9b3d 9036 d03c
00000020: 3e01 56be 646d 05be 4c4f babd 30fd fabc
00000030: 680a 6d3e 7ea0 4c3e e213 0a3e f8d0 423d
00000040: 8c6e f73d 8e53 61be fa9d 75be a4b5 d73d
00000050: 002d 0fbe 789f a4bd 8c4c 393e 3c3f 5f3e
00000060: 92ce 203e 00e3 89bd 60b7 f8bc 6058 3f3d
00000070: 6855 6d3d 00a9 45bb c8a8 19be 80fb 5d3b
00000080: 8896 d5bd 6835 163d 9444 efbd b0e9 9fbd
00000090: f8b4 fe3d 1c30 793e 706e 7abd 64cd 943d
000000a0: 10b5 b8bc 7835 11be 8e67 3bbe 1e88 19be
000000b0: 1c86 18be b4c7 073e c0f0 273d 6c70 b23d
000000c0: d299 22be 14d8 1abe 124b 0fbe b0c6 7ebd
000000d0: 50e3 d5bd f071 9abc 2860 43bd 4e04 503e
000000e0: eae7 3ebe 00da 6cbc 4c28 dbbd ae8a 58be
000000f0: 4451 763e fc85 953d 987e 0dbd 26f6 753e
00000100: 0c3f bb3d 7203 7d3e 906d 7fbd a22b 2ebe
00000110: 70de 4e3e 30b0 723e 7404 093e 40dc af3b
00000120: 10af 1cbe b037 a0bd 0094 30be a4b8 fa3d
00000130: 6cc7 c63d a8e0 44be 6e71 45be 380c 7dbe
00000140: a452 953d 14ca 873d 4055 99bc ba73 683e
00000150: a0eb 2e3c dc12 0a3e f0ba cb3d b815 633d
00000160: 3c34 94bd 9416 f0bd 68e0 88bd 4039 e83d
00000170: d05e f7bc 8a3f 0a3e b075 b83c 2c59 123e
00000180: 22ad 04be 7017 023e e048 e2bd 8470 f33d
00000190: 0c59 c93d c833 773d 209e eebd d032 82bd
000001a0: 8828 2e3d 6026 c1bc 1468 68be 2ecf 1e3e
000001b0: 00f9 063d 8867 b5bd 38a1 98bd aceb 55be
000001c0: 404b 43bc 28db 03be 1080 0bbe 1c17 873d
000001d0: 7c09 4fbe 3465 60be 36e8 283e d6f5 7abe
000001e0: cc7d f5bd a454 943d 88b6 483e 0055 55bc
000001f0: 2207 453e 1c90 4abe 6c8e 0c3e 408a 5dbe
00000200: a4be a2bd ccbb 163e 0eb7 5dbe 4a4d 1cbe
00000210: 984b fa3d cc01 10be 1adb 28be 6853 44be
00000220: e044 323d c6a0 26be c059 533e b499 57be
00000230: f684 53be 4cdf 013e 4aea 55be 3099 4b3e
00000240: 0025 543b 0e30 66be fcfe a33d b0cc 3d3e
00000250: ac2d 41be 5070 cb3d 9eca 52be 3857 f9bd
00000260: b889 36be 64f8 b23d 1c82 8bbd 3c19 2f3e
00000270: 5c18 72be 4cd4 1dbe 9834 1a3e 58ca 543d
00000280: f08f 7fbd 5c96 6c3e 860e 2ebe 5239 57be
00000290: 085b e7bd 4097 1d3c 3809 c1bd 68f8 253d
000002a0: c447 a73d 64d9 18be a099 d93c 60c9 68bd
000002b0: f2dc 50be 3866 e53d 7474 fa3d b836 cebd
000002c0: 045f 81bd c459 3f3e c606 46be acec ce3d
000002d0: 300d 9f3c d0b7 763e 6c8a 4fbe 085c 98bd
000002e0: f815 e5bd 4878 b4bd d0ea 82bd 68cc 37be
000002f0: 8629 3ebe 7843 303d 4026 f63c f8e7 6dbe
00000300: 8c06 c23d d459 2f3e 6a0c 5b3e 22f8 39be
00000310: 5051 58bd 68e9 613d 6048 61be b8b8 5a3d
00000320: 9082 ed3d d0bc d63c 64ce 3b3e 54fe 553e
00000330: f8c0 673e f87d dcbd 4c65 4e3e 0079 573e
00000340: 1c8c ec3d 2eb1 01be 86eb 393e 207b 0abd
00000350: e85b f93d 30ef db3d ac40 553e 381a 523e
00000360: 8023 1d3c 804c 22bd 98b3 2bbe e824 1dbd
00000370: c0eb 41be 20f0 163c 0641 303e 4cf4 0f3e
00000380: c48a 57be d830 28bd 0250 7ebe c0be 35bc
00000390: 5890 3abd 1679 5cbe f415 023e 8418 163e
000003a0: 46c8 59be 1c4a 363e e643 4a3e 6c44 eabd
000003b0: 665e 1e3e be18 513e 6037 853d d886 573d
000003c0: a2a6 363e 4881 7f3d 6ea9 4ebe 8a2b 7f3e
000003d0: c6a5 073e 7093 c83c ac79 353e 585c 1bbd
000003e0: a2fc 1f3e fe08 2b3e 4427 6a3e e8d0 15bd
000003f0: c0c4 8ebd 5655 57be 342d e73d 802b f6bb

network.2.bias f4 [32]
0.0 0.0 0.0 0.0 0.0 0.0 0.0 0.0
0.0 0.0 0.0 0.0 0.0 0.0 0.0 0.0
0.0 0.0 0.0 0.0 0.0 0.0 0.0 0.0
0.0 0.0 0.0 0.0 0.0 0.0 0.0 0.0
00000000: 0000 0000 0000 0000 0000 0000 0000 0000
00000010: 0000 0000 0000 0000 0000 0000 0000 0000
00000020: 0000 0000 0000 0000 0000 0000 0000 0000
00000030: 0000 0000 0000 0000 0000 0000 0000 0000
00000040: 0000 0000 0000 0000 0000 0000 0000 0000
00000050: 0000 0000 0000 0000 0000 0000 0000 0000
00000060: 0000 0000 0000 0000 0000 0000 0000 0000
00000070: 0000 0000 0000 0000 0000 0000 0000 0000

network.4.weight f4 [16, 32]
-0.092301816 0.01262632 0.120595336 0.19855556 -0.3405829 -0.27103812 -0.33791655 -0.3113487
0.3292776 0.22729245 0.33238116 0.35080603 -0.03486213 -0.00018292665 -0.1823335 -0.15651742
-0.24218515 0.2174842 0.08121684 0.09905103 0.08742112 0.105734795 -0.318348 0.1610513
-0.008368224 -0.22347814 -0.27630892 0.11074504 -0.121505395 -0.25152776 0.2898321 0.2059702
-0.048024863 -0.10054943 0.30066946 0.19690529 -0.3423491 0.17516962 0.14577317 0.33976397
0.2749146 0.24465439 0.26605162 -0.3483682 -0.25130358 0.07183424 0.2431843 -0.30905062
0.030827671 0.085760504 -0.28940883 -0.30691782 0.27871862 -0.26119226 -0.095047474 -0.19533382
-0.032241523 -0.021680057 0.13336071 0.278734 -0.048714757 -0.2896217 0.18316153 -0.16070677
-0.02982679 0.30645165 0.13292268 0.3293617 0.305104 0.15966871 -0.010388851 0.013399273
0.13938284 -0.15100487 -0.0708417 -0.15092091 0.0017127693 -0.2070817 -0.07148746 -0.2091896
0.292641 0.18444452 0.2751164 -0.3238548 0.046645254 -0.04313472 0.1626831 0.29453835
-0.27812684 -0.15280062 0.29779086 0.1216293 -0.27684072 -0.0050524473 -0.1694989 -0.1588323
-0.025839418 0.11145297 -0.1301565 0.3356116 0.2157239 -0.15169653 -0.013248742 0.172802
-0.19915852 0.15045694 -0.24668069 -0.062539935 -0.08963922 -0.13737562 -0.17808919 -0.1303245
-0.07206562 0.06902212 -0.0769797 0.24889472 -0.0652124 0.23403117 -0.27033082 -0.30843085
-0.03224364 0.27354208 0.33549073 -0.257344 -0.04648885 -0.018171906 -0.14025278 -0.107022524
-0.29621318 0.17350516 -0.092966706 -0.036316514 0.0843682 0.041552484 0.048662156 -0.3465938
-0.09137064 -0.2638985 0.12429345 0.058065712 -0.29031682 -0.09726852 0.2358183 0.17005041
-0.27789205 -0.22097786 0.1253224 0.24531457 0.34052226 -0.21660605 -0.18165785 0.10267156
0.0996311 -0.25961667 -0.027613014 -0.34051517 -0.3050404 -0.24216345 0.07951909 0.061059535
0.30569807 -0.058804154 0.20085427 0.20913592 0.2244595 0.24137428 -0.23755395 -0.2516701
-0.04292065 -0.03892094 -0.19129328 -0.25357124 0.32700303 -0.0477145 -0.2199534 0.28216907
0.16799894 -0.07484084 0.14937046 -0.0066688955 0.33945575 0.08307797 0.15093383 0.26103058
0.24376819 -0.1208673 -0.302651 0.19425568 -0.25896263 -0.022213995 -0.100994796 0.0472022
0.1216951 0.27071425 -0.32735458 0.15433428 -0.13072191 0.29474148 0.2980946 0.16885105
-0.17619064 0.2282013 0.06041044 0.33833942 0.20926437 0.27134493 0.12289527 -0.30430004
-0.21766406 -0.12850426 0.09678498 -0.28876263 -0.10957663 0.30279866 0.33236358 -0.13139242
0.21359554 0.15099218 0.07166162 -0.27574512 -0.05484152 0.20891824 0.19788024 0.14716408
-0.078475446 -0.091486365 0.2977526 -0.038498998 -0.013086289 0.22390005 0.28947732 -0.14560467
-0.31569397 0.28839138 -0.24694926 0.010621339 0.23104283 -0.24066457 -0.119342 -0.25175542
0.17576572 -0.038837522 -0.09923607 -0.12543227 -0.34172517 -0.16580819 -0.2686677 -0.26869684
0.004316509 -0.034865856 0.098127395 -0.2550555 -0.044157118 0.15248814 0.020622492 -0.021306545
00000000: bc08 bdbd a0de 4e3c b0fa f63d 2652 4b3e
00000010: e260 aebe 82c5 8abe 6603 adbe 1969 9fbe
00000020: 1397 a83e 5abf 683e dd2d aa3e d99c b33e
00000030: 98cb 0ebd 00d0 3fb9 a2b5 3abe 1a46 20be
00000040: 62ff 77be 2eb4 5e3e 0455 a63d 44db ca3d
00000050: d809 b33d 7c8b d83d 82fe a2be a2ea 243e
00000060: e01a 09bc 74d7 64be 5d78 8dbe 4cce e23d
00000070: d2d7 f8bd 3fc8 80be df64 943e dae9 523e
00000080: b8b5 44bd dcec cdbd 59f1 993e 8aa1 493e
00000090: 6248 afbe aa5f 333e 9045 153e 8bf5 ad3e
000000a0: 9bc1 8c3e ae86 7a3e eb37 883e 515d b2be
000000b0: ddaa 80be d41d 933d 4e05 793e e23b 9ebe
000000c0: 508a fc3c 34a3 af3d 652d 94be 5524 9dbe
000000d0: 35b4 8e3e feba 85be 40a8 c2bd 9705 48be
000000e0: b00f 04bd 609a b1bc b68f 083e 39b6 8e3e
000000f0: 2089 47bd 4c49 94be b28e 3b3e 5190 24be
00000100: 5057 f4bc 3be7 9c3e e21c 083e 19a2 a83e
00000110: 9736 9c3e 3280 233e 0036 2abc a088 5b3c
00000120: 60ba 0e3e 05a1 1abe 7415 91bd 038b 1abe
00000130: 007f e03a 3a0d 54be 0468 92bd cc35 56be
00000140: 0bd5 953e 06df 3c3e 0fdc 8c3e 4cd0 a5be
00000150: 180f 3f3d 08ae 30bd 6696 263e bbcd 963e
00000160: a466 8ebe c477 1cbe 0b78 983e c818 f93d
00000170: 11be 8dbe 008f a5bb 1f91 2dbe efa4 22be
00000180: 30ad d3bc 7441 e43d bf47 05be 49d5 ab3e
00000190: bae6 5c3e 5656 1bbe 4011 59bc 02f3 303e
000001a0: 36f0 4bbe 6211 1a3e dd99 7cbe f014 80bd
000001b0: c494 b7bd 32ac 0cbe 035d 36be c973 05be
000001c0: 2497 93bd 785b 8d3d 88a7 9dbd 42de 7e3e
000001d0: 148e 85bd dea5 6f3e cd68 8abe a6ea 9dbe
000001e0: e811 04bd b50d 8c3e 71c5 ab3e 98c2 83be
000001f0: 186b 3ebd 40dd 94bc 6d9e 0fbe a02e dbbd
00000200: 41a9 97be 56ab 313e 5465 bebd a0c0 14bd
00000210: 3cc9 ac3d f032 2a3d f851 473d be74 b1be
00000220: 8820 bbbd b41d 87be 908d fe3d 50d6 6d3d
00000230: 68a4 94be b834 c7bd 5a7a 713e b221 2e3e
00000240: de47 8ebe 0548 62be 8454 003e be33 7b3e
00000250: ef58 ae3e facd 5dbe 8404 3abe 7845 d23d
00000260: 640b cc3d 7aec 84be b034 e2bc 0158 aebe
00000270: 412e 9cbe b2f9 77be e8da a23d 9019 7a3d
00000280: 7584 9c3e a0dc 70bd beac 4d3e ba27 563e
00000290: b6d8 653e d22a 773e 5841 73be e7da 80be
000002a0: 90cd 2fbd 906b 1fbd 63e2 43be 17d4 81be
000002b0: f16c a73e 4870 43bd 773b 61be 7778 903e
000002c0: ea07 2c3e 2846 99bd 92f4 183e c086 dabb
000002d0: 25cd ad3e c824 aa3d 668e 1a3e cda5 853e
000002e0: 5e9e 793e 4689 f7bd 12f5 9abe f6ea 463e
000002f0: c096 84be 20fa b5bc 5cd6 cebd 1857 413d
00000300: 483b f93d 0f9b 8a3e 059b a7be ce09 1e3e
00000310: f7db 05be 5be8 963e db9f 983e 4ae7 2c3e
00000320: 526b 34be 9aad 693e f070 773d d33a ad3e
00000330: 6649 563e b9ed 8a3e 84b0 fb3d 37cd 9bbe
00000340: 54e3 5ebe 9f96 03be 3437 c63d b2d8 93be
00000350: b669 e0bd 6d08 9b3e 8f2b aa3e bc8b 06be
00000360: cab8 5a3e b29d 1a3e 54c3 923d 772e 8dbe
00000370: 80a1 60bd aaee 553e 1ea1 4a3e 2eb2 163e
00000380: bcb7 a0bd 345d bbbd 0773 983e 20b1 1dbd
00000390: e067 56bc 0e46 653e 5f36 943e 6419 15be
000003a0: a4a2 a1be 09a8 933e 44e0 7cbe 2005 2e3c
000003b0: 7e96 6c3e c670 76be 9469 f4bd 16e6 80be
000003c0: eefb 333e 1814 1fbd 483c cbbd 5171 00be
000003d0: 9af6 aebe 9fc9 29be d08e 89be a292 89be
000003e0: 8071 8d3b 80cf 0ebd 04f7 c83d a296 82be
000003f0: 18de 34bd da25 1c3e 80f0 a83c 108b aebc

network.4.bias f4 [16]
0.0 0.0 0.0 0.0 0.0 0.0 0.0 0.0
0.0 0.0 0.0 0.0 0.0 0.0 0.0 0.0
00000000: 0000 0000 0000 0000 0000 0000 0000 0000
00000010: 0000 0000 0000 0000 0000 0000 0000 0000
00000020: 0000 0000 0000 0000 0000 0000 0000 0000
00000030: 0000 0000 0000 0000 0000 0000 0000 0000

network.6.weight f4 [1, 16]
0.5658487 0.21836227 -0.024380386 -0.55562586 0.09751201 -0.5423297 -0.52272135 0.02749163
-0.0034779906 -0.4523466 -0.13410464 0.39669293 -0.29425472 0.5481 0.39812535 0.5471983
00000000: 76db 103f 5c9a 5f3e 60b9 c7bc 7f3d 0ebf
00000010: 60b4 c73d 1fd6 0abf 11d1 05bf 2036 e13c
00000020: 00ef 63bb f999 e7be ba52 09be 561b cb3e
00000030: 8ea8 96be 4850 0c3f 16d7 cb3e 3015 0c3f
