saved_model.pt (torch, 16944 bytes, 7 tensors)

network.0.weight f4 [64, 10]
000000 ee d6 38 be a8 c5 98 3d c8 52 09 3e a4 9d 17 be
       -0.18050739 0.07459575 0.13410485 -0.14806229
000010 6a 2e 7e 3e 42 af 10 3e 00 10 f1 3d 4c 1a a7 bd
       0.24822393 0.14129356 0.1177063 -0.081593126
000020 8e 75 74 3e 36 a1 5a 3e 59 cc 8e be e6 d8 4b 3e
       0.23872969 0.2135056 -0.2789028 0.19906959
000030 a0 47 c7 3d ea 95 c1 bd b2 33 65 be 8e fd b3 bd
       0.09730458 -0.09452422 -0.22383001 -0.08788596
000040 6c db 04 be 9a 91 3d 3e 00 4b 5b 3b 0a a6 2b be
       -0.12974328 0.18512574 0.0033461452 -0.16762558
000050 78 40 48 bd 52 a6 69 3e 86 16 31 be a8 27 13 bd
       -0.048889607 0.22817352 -0.17293748 -0.03592649
000060 ce d1 11 3e f2 e2 61 3e 06 3e 6f be 90 15 29 3d
       0.1424019 0.22059229 -0.23363504 0.04128033
000070 50 d7 7a 3d d8 b8 49 be 74 db 54 3e ba 6d 48 be
       0.061240494 -0.19699419 0.2078684 -0.19573107
000080 f8 9b fc 3d c2 68 7d 3e 00 53 38 3d e4 c1 82 3d
       0.12334436 0.24746993 0.04500103 0.06384638
000090 fa 93 46 3e 28 8c 0b bd 0a 39 77 3e bc f0 1b bd
       0.19392386 -0.03406921 0.24142852 -0.03807138
0000a0 00 96 25 bc d2 56 eb bd 63 c9 8b be 5e 6c 63 3e
       -0.010106564 -0.11491169 -0.27302083 0.22209308
0000b0 2c c0 21 3e 98 00 7d 3d 12 e0 51 3e 94 4d 67 bd
       0.15795964 0.061768144 0.20495632 -0.05647047
0000c0 16 a6 c9 bd 8e 8f 02 3e 18 ff 1a 3e 5a 31 53 be
       -0.098461315 0.12750074 0.15136373 -0.20624295
0000d0 6f 9f 8d 3e a9 c6 04 be 9d c7 88 be 0b d9 8a 3e
       0.276607 -0.12966408 -0.26714793 0.27118716
0000e0 12 87 5e be a0 39 36 bd 30 57 ff 3c 80 fb 31 be
       -0.21731213 -0.04448855 0.031169504 -0.17381096
0000f0 b0 1e 7f be 9d 34 07 be e0 ce 45 3e 60 b2 0c 3d
       -0.2491405 -0.13203664 0.19317198 0.0343498
000100 86 6a 05 3e d7 f5 82 3e 64 a7 01 3e 60 14 47 bc
       0.13028917 0.25578186 0.1266151 -0.012150854
000110 e8 a2 d7 bd 90 00 df bc 84 5d a3 3d 9e 5b 6c 3e
       -0.10529119 -0.027221948 0.07976821 0.23081824
000120 5e ef 4d 3e 6c 9f 4f be b0 2d ed 3d b4 74 9e 3d
       0.20110843 -0.20275658 0.1158098 0.07737103
000130 31 0c 8e 3e 30 7d f8 3c 82 6b 26 3e 85 68 84 be
       0.27743676 0.030333132 0.16251948 -0.25860992
000140 ff 17 5a be 8e a1 92 bd 60 cc 52 3c 7a 07 b9 bd
       -0.21298216 -0.0715972 0.01286611 -0.09034629
000150 c3 49 90 3e c0 43 9d bb 79 fd 81 be 97 2c 8d 3e
       0.28181276 -0.004799336 -0.25388697 0.27573082
000160 d2 90 70 be b8 6b ea 3d fd 45 91 3e 80 b8 9e 3c
       -0.23492745 0.11446327 0.2837371 0.019375086
000170 24 4f 8e 3d 44 e6 b5 3d bd d6 5e be 46 cb 11 be
       0.069486886 0.0888181 -0.21761604 -0.14237699
000180 c8 6f 67 bd d6 f5 54 3e c0 c0 e6 3d c2 9c 42 be
       -0.056503087 0.20796904 0.11267233 -0.19005111
000190 60 8e 59 be 5c 2d 92 bd 25 05 8d 3e 80 35 9d 3d
       -0.21245718 -0.07137558 0.27542987 0.0767622
0001a0 b6 56 17 3e 2e ec 16 3e aa a1 1f be 6a d1 2a be
       0.14779171 0.14738533 -0.15589014 -0.16681448
0001b0 60 37 47 3c 76 98 bb bd 97 83 53 be d0 e8 02 bd
       0.0121591985 -0.09159939 -0.20655666 -0.03196031
0001c0 78 e5 6f bd f8 9d 48 3e 8b c2 06 be b0 25 a0 bc
       -0.058568448 0.1959151 -0.1316015 -0.01954922
0001d0 00 ae 17 ba 20 04 19 3d a4 6a b3 bd 5a 75 3a 3e
       -0.0005786121 0.03735745 -0.087605745 0.18208829
0001e0 06 65 48 3e 48 bc c3 bd ca 5a 59 3e 24 81 15 3e
       0.19569787 -0.09557396 0.2122604 0.14600044
0001f0 80 46 1f be 50 c0 3e 3d 11 d4 02 be d1 22 65 be
       -0.15554237 0.046570122 -0.1277621 -0.22376563
000200 2d 73 82 be c8 c6 a1 bd ae 3f 5f 3e 40 68 d8 bc
       -0.25478497 -0.07899243 0.21801636 -0.026416898
000210 54 d5 41 3e 20 aa 55 3c cd 4c 09 be a8 3a fa bd
       0.18929034 0.013041049 -0.13408203 -0.12218219
000220 26 52 73 3e 24 d2 5a 3e 5a 49 07 3e 60 10 08 bd
       0.23761806 0.21369225 0.13211575 -0.03321874
000230 de db 6a 3e 68 92 97 3d b8 99 0f 3d bb 69 11 be
       0.22935435 0.07400972 0.035058707 -0.14200489
000240 7a 3d 07 3e c0 ef b6 3b d5 49 91 be 46 af e6 bd
       0.13207045 0.0055827796 -0.28376642 -0.112638995
000250 c8 25 44 bd e7 f9 1c be 3e d0 8d bd 90 d2 81 be
       -0.047887594 -0.15329705 -0.06924485 -0.2535596
000260 50 30 7c 3d f0 b8 d7 bd 70 4c 9e bc 80 1b b9 bb
       0.061569512 -0.10533321 -0.019323558 -0.00564903
000270 ee f9 aa bd 22 de 28 3e 20 c9 3a be e7 11 49 be
       -0.083484516 0.16490987 -0.18240786 -0.19635735
000280 76 88 0f be 24 21 ae 3d 46 e5 78 3e cc 1c a9 bd
       -0.140169 0.08502415 0.24306211 -0.08257446
000290 5e 0b 01 be 12 e7 1a be a4 9c 3d bd 89 d8 8e be
       -0.12601992 -0.15127209 -0.046291962 -0.27899578
0002a0 d4 79 94 bd fe 5e 3d 3e ae f0 95 bd a8 c4 0b 3d
       -0.07249799 0.18493268 -0.07321297 0.034123093
0002b0 fb 2b 81 be fd c8 88 3e e4 cc 57 be ae d6 33 3e
       -0.25228867 0.26715842 -0.21074253 0.17562363
0002c0 e8 cb 04 3d d0 88 dd bc 01 85 22 be 6c f3 35 be
       0.032421023 -0.027042776 -0.1587105 -0.1776864
0002d0 40 46 31 bd f2 2f 7b 3e ec 65 c4 3d f0 79 39 be
       -0.043279886 0.24530008 0.095897526 -0.18112922
0002e0 f4 8c c4 3d 44 03 ba bd bb 7b 46 be 76 45 ed bd
       0.09597197 -0.09082654 -0.19383137 -0.11585514
0002f0 ca b0 66 3e 18 a5 e6 3d b2 5e c2 bd ee ad 5f 3e
       0.22528377 0.11261958 -0.09490718 0.21843693
000300 52 09 2f 3e 58 67 13 3d 51 a3 79 be 80 06 03 3b
       0.17093399 0.03598723 -0.24378707 0.0019992888
000310 dc 55 75 be 70 cf 81 bc 20 1f 55 3c 80 fc 1b 3b
       -0.23958534 -0.015845984 0.013007909 0.0023801625
000320 5c a1 4c be 14 2a 44 bd 40 db 2f bc 26 f3 5d 3e
       -0.19983429 -0.04789169 -0.010733426 0.21674785
000330 b0 19 23 3e 20 75 e2 bd f9 7d 8e be 50 56 a2 bc
       0.15927768 -0.11057496 -0.27830485 -0.019816548
000340 b4 16 fb 3d ec 07 86 bd 78 e9 b2 3d 8a 0d 68 3e
       0.1226019 -0.0654448 0.08735937 0.22661415
000350 82 bc 34 be 00 86 cb bc c0 0e 70 bd 42 b5 24 be
       -0.17650035 -0.02484417 -0.058607817 -0.1608477
000360 ba 4f d1 bd 70 78 bf 3c f8 3a 6c 3d 08 0c c6 3d
       -0.10220285 0.023372859 0.057673424 0.096702635
000370 74 5c 5a be 1b 97 69 be 00 a3 2c 3e 22 88 79 3e
       -0.2132433 -0.22811548 0.16859055 0.24368337
000380 d4 b8 78 bd dc 11 df 3d dc 0a 35 3e a0 39 31 bd
       -0.06072314 0.10892078 0.17679924 -0.043267846
000390 70 37 4e 3e 18 54 61 be 10 a3 3a be 12 ca 14 3e
       0.20138335 -0.22004735 -0.18226266 0.14530209
0003a0 f4 f8 c0 bd 98 2f 74 bd 10 56 8c bc 00 87 12 bb
       -0.09422484 -0.0596157 -0.017130882 -0.0022358298
0003b0 50 c0 a4 3c 88 38 81 3d c0 03 f9 3b 6e 0b 01 be
       0.020111233 0.063096106 0.007599324 -0.12602016
0003c0 50 7c 50 3d da 08 6d be d2 bd 6d be 75 c4 8b be
       0.050899804 -0.23147908 -0.23216942 -0.27298322
0003d0 ec 7c e7 3d 80 8f 42 be 80 a4 fd 3d 82 e8 ab bd
       0.11303124 -0.19000053 0.123848915 -0.08393957
0003e0 d4 c0 84 3d 97 28 8f 3e 61 46 8b 3e b4 df f9 bd
       0.064820915 0.27960655 0.27202132 -0.12200871
0003f0 9e 3f 72 3e 98 66 d7 3d a4 ea bf 3d 74 d2 1f be
       0.2365708 0.10517615 0.09370926 -0.15607625

network.0.bias f4 [64]
000000 00 00 00 00 00 00 00 00 00 00 00 00 00 00 00 00
       0.0 0.0 0.0 0.0
000010 00 00 00 00 00 00 00 00 00 00 00 00 00 00 00 00
       0.0 0.0 0.0 0.0
000020 00 00 00 00 00 00 00 00 00 00 00 00 00 00 00 00
       0.0 0.0 0.0 0.0
000030 00 00 00 00 00 00 00 00 00 00 00 00 00 00 00 00
       0.0 0.0 0.0 0.0
000040 00 00 00 00 00 00 00 00 00 00 00 00 00 00 00 00
       0.0 0.0 0.0 0.0
000050 00 00 00 00 00 00 00 00 00 00 00 00 00 00 00 00
       0.0 0.0 0.0 0.0
000060 00 00 00 00 00 00 00 00 00 00 00 00 00 00 00 00
       0.0 0.0 0.0 0.0
000070 00 00 00 00 00 00 00 00 00 00 00 00 00 00 00 00
       0.0 0.0 0.0 0.0
000080 00 00 00 00 00 00 00 00 00 00 00 00 00 00 00 00
       0.0 0.0 0.0 0.0
000090 00 00 00 00 00 00 00 00 00 00 00 00 00 00 00 00
       0.0 0.0 0.0 0.0
0000a0 00 00 00 00 00 00 00 00 00 00 00 00 00 00 00 00
       0.0 0.0 0.0 0.0
0000b0 00 00 00 00 00 00 00 00 00 00 00 00 00 00 00 00
       0.0 0.0 0.0 0.0
0000c0 00 00 00 00 00 00 00 00 00 00 00 00 00 00 00 00
       0.0 0.0 0.0 0.0
0000d0 00 00 00 00 00 00 00 00 00 00 00 00 00 00 00 00
       0.0 0.0 0.0 0.0
0000e0 00 00 00 00 00 00 00 00 00 00 00 00 00 00 00 00
       0.0 0.0 0.0 0.0
0000f0 00 00 00 00 00 00 00 00 00 00 00 00 00 00 00 00
       0.0 0.0 0.0 0.0

network.2.weight f4 [32, 64]
000000 ec 41 a2 3d 22 c1 40 be 20 c1 2d bc 7c 61 c2 3d
       0.0792273 -0.18823674 -0.010605127 0.0949125
000010 0c 5a 05 be 50 71 3e 3d 2a 50 09 3e 4a f5 46 3e
       -0.13022631 0.046494782 0.13409486 0.19429508
000020 c6 1c 11 3e 50 74 6f bd 18 ed 2d 3e 34 e1 ca bd
       0.14171132 -0.058460534 0.16984975 -0.09906235
000030 c0 a1 e0 3c 58 cc 16 bd 4c 14 f1 bd 20 e9 99 3c
       0.027420878 -0.03681597 -0.117714494 0.01878792
000040 10 59 ab 3c 64 0b 3a be 7a d8 05 3e ac 5c 14 be
       0.020916492 -0.18168408 0.1307086 -0.14488477
000050 ac 98 ae bd 3e ad 6f be 68 6d d0 bd ba 39 15 3e
       -0.085252136 -0.2340593 -0.101771176 0.14572802
000060 30 7a a0 bc a2 30 4e be e4 76 8d 3d 00 60 c0 b9
       -0.019589514 -0.2013574 0.06907442 -0.0003669262
000070 f8 ea c5 3d 30 58 6d be ea 15 08 3e 20 41 69 be
       0.09663957 -0.23178172 0.1328961 -0.2277875
000080 88 93 4a bd 80 91 7a 3d b8 cd 78 3e d0 7a 25 3d
       -0.049457103 0.061173916 0.24297225 0.040400326
000090 c0 36 62 3d 90 31 9a bd 80 79 5a bd ec d2 49 be
       0.055227995 -0.075289845 -0.053338528 -0.19709367
0000a0 80 6a 47 3d 86 36 7e be 00 5c 71 bd ba 6a 6e be
       0.04868555 -0.24825487 -0.05892563 -0.232829
0000b0 f8 2e 4d 3e fa 49 77 be 22 1d 4c be f0 4b ab bc
       0.20037448 -0.24149314 -0.19932988 -0.020910233
0000c0 60 77 0a 3e f4 92 6d 3e e4 05 4e be b4 80 bb bd
       0.135221 0.2320059 -0.20119435 -0.091554075
0000d0 58 78 5e 3e 8e d7 5e 3e 7e e9 28 3e 78 9f 06 3e
       0.21725595 0.21761915 0.1649532 0.1314677
0000e0 00 98 25 3e 30 44 01 3e 78 e4 4a 3e f8 9a 46 3d
       0.16171265 0.12623668 0.19813716 0.048487633
0000f0 c4 8b 28 be 88 8f 5a 3e bc 9e be 3d c0 a1 d2 3c
       -0.16459566 0.21343815 0.0930762 0.025711894
000100 c4 05 c5 3d 00 32 e4 ba 8c 30 bd 3d 00 14 3b be
       0.0962024 -0.0017409921 0.09237775 -0.18269348
000110 ec d6 e9 bd ec 49 36 be e8 6b cb bd 56 12 1e 3e
       -0.11417946 -0.17801636 -0.09932691 0.15436682
000120 a4 8c 25 3e 00 1c 3e 3d 84 2f 4a be 40 fa 83 bd
       0.16166931 0.04641342 -0.19744688 -0.06444216
000130 34 77 06 3e 90 b4 fb bd 4e 88 2e be 86 5a 1c be
       0.1313141 -0.12290299 -0.17044184 -0.15268907
000140 e0 44 20 bc dc 79 4a 3e 10 b7 72 bd a0 9a ab bc
       -0.009782046 0.19773048 -0.059256613 -0.020947754
000150 14 be 49 3e 00 ea 43 ba e0 ea 58 bd 3c e6 c5 3d
       0.19701415 -0.00074735284 -0.05295837 0.09663054
000160 9e 64 0f be ac 7d f8 3d 00 54 09 bc b4 93 f9 bd
       -0.14003226 0.12133345 -0.008381844 -0.12186375
000170 44 6d 2d 3e 30 6b 34 bd a6 39 39 be 80 ae e3 bb
       0.16936213 -0.044047534 -0.18088397 -0.0069482923
000180 26 e8 66 be 10 41 0c bd 9e f7 4d be 1e 66 58 3e
       -0.22549495 -0.034241736 -0.2011399 0.21132705
000190 c0 b1 3a be 0c d6 74 3e b8 ff 57 bd 76 e4 65 be
       -0.18231869 0.23909777 -0.052734107 -0.22450432
0001a0 ac 49 5b 3e 14 9e 9c 3d 1c fe 9f 3d 46 5f 7c be
       0.21414822 0.076473385 0.078121394 -0.24645719
0001b0 9c c0 6f 3e c4 47 60 be 60 91 1b 3d 0c 3c 3f be
       0.23413318 -0.21902376 0.037980437 -0.1867525
0001c0 34 75 17 3e d0 46 d0 3d 4e 2f 59 be a2 3b 15 be
       0.14790803 0.101697564 -0.21209452 -0.1457353
0001d0 2a 50 3f be 3c 79 9e bd fe 49 25 3e cc d7 b0 bd
       -0.18682924 -0.07737967 0.16141507 -0.0863491
0001e0 5a dd 56 3e b6 8e 49 be 06 66 54 be a8 cb 4d 3d
       0.20982876 -0.19683346 -0.20742044 0.05024305
0001f0 f2 09 20 be 50 df 75 3e 5e 68 7e 3e 40 cf 6b 3d
       -0.15628794 0.24010968 0.248445 0.057570696
000200 e4 5c 6d 3e a0 b0 61 bd 74 88 04 3e ce 9c 5e 3e
       0.23179966 -0.055100083 0.12942678 0.21739504
000210 86 d1 45 be e0 79 ea 3d f8 b6 2f 3e a0 a3 cb bc
       -0.19318208 0.11449027 0.17159641 -0.024858296
000220 28 1c fa 3d 00 d4 f8 bc c4 a4 79 3e 3e e8 73 3e
       0.12212402 -0.030374527 0.2437926 0.23819062
000230 04 d6 34 3e d4 93 86 3d 0e cf 64 3e 88 79 71 3d
       0.17659765 0.06571165 0.2234461 0.05895379
000240 f0 b0 5c 3e 80 01 7f be 40 36 33 3d f8 6d 45 be
       0.21551871 -0.24902916 0.04375291 -0.19280231
000250 40 04 96 bc c2 ea 75 be ba ac 5a 3e 40 2b 46 bc
       -0.018312573 -0.24015334 0.21354952 -0.012095273
000260 62 48 41 be a8 7d 09 3d aa 72 33 3e 8c df a7 3d
       -0.18875268 0.0335671 0.1752421 0.08196935
000270 d0 72 5c be e0 44 57 be 18 fd 2d 3e 30 3c 4a be
       -0.21528172 -0.21022367 0.16991079 -0.19749522
000280 1a ce 42 3e 18 05 73 3e e0 2e 43 bd a8 ed 54 bd
       0.19023934 0.23732412 -0.047652125 -0.05198446
000290 40 5e 37 be 62 3d 1b be 90 26 4e 3e a0 d7 23 3c
       -0.17907047 -0.15160134 0.20131898 0.0100001395
0002a0 10 aa 75 bd 00 a4 25 bd 8c b2 ad 3d 96 cd 78 be
       -0.059976637 -0.040439606 0.08481321 -0.24297175
0002b0 e0 54 b7 bd a4 47 bb 3d f8 dc d3 3d 24 7a 37 be
       -0.089517355 0.09144524 0.10344881 -0.17917687
0002c0 00 fa e4 3d fc 0d 19 be 48 52 1e bd 00 69 e8 bc
       0.11180496 -0.14946741 -0.03865269 -0.02837038
0002d0 40 fb ff 3d 10 c5 79 bd e2 6a 0b be 30 0d a2 bd
       0.12499094 -0.06097895 -0.13614991 -0.079126716
0002e0 00 91 1e be 08 19 37 3d d0 aa 59 be ea f1 3b 3e
       -0.15485 0.044701606 -0.21256566 0.18354002
0002f0 d4 88 6d be 5c af fd 3d 76 29 18 3e 7e 2a 61 be
       -0.23196727 0.12386963 0.14859566 -0.21988866
000300 9e d4 49 be 48 b0 7d 3e a0 05 0d 3e 34 69 67 be
       -0.19710013 0.24774277 0.13771677 -0.22598726
000310 98 ed 19 bd d0 66 ec bc 40 c7 6e bc 94 78 0b be
       -0.037580103 -0.028857619 -0.014573872 -0.13620216
000320 56 da 05 be a0 3a cc 3d 84 0d 52 3e 20 c5 32 bc
       -0.1307157 0.09972119 0.20512968 -0.010911256
000330 fc a4 ea 3d 0c d0 df 3d a4 c8 be 3d 98 78 68 3d
       0.114572495 0.10928354 0.09315613 0.056755632
000340 7e 7b 6a be 42 f8 48 3e 50 ac 7e 3e d2 8a 02 be
       -0.22898671 0.19625953 0.2487042 -0.12748268
000350 c8 1c 63 3d 00 eb ce 3c 98 a1 b8 bd 9e 1a 23 be
       0.05544737 0.025258541 -0.090151966 -0.15928122
000360 a0 69 82 3d f0 92 7b be c0 e2 44 bd 80 57 a5 3c
       0.063678026 -0.24567771 -0.04806781 0.020183325
000370 02 30 00 be d8 33 92 3d 10 be 09 be ac 5b 1d be
       -0.12518314 0.07138795 -0.1345141 -0.15367001
000380 4e 29 31 3e de 47 5e 3e d0 51 7c 3e a8 4a 32 3e
       0.17300913 0.21707103 0.24640584 0.17411292
000390 d6 d3 56 be 00 e5 98 ba 70 b4 32 be 1c 5e 23 be
       -0.20979246 -0.0011664927 -0.17451644 -0.15953869
0003a0 80 d6 77 3b 48 d7 88 bd 50 d6 f4 3d c0 42 5a 3d
       0.003781706 -0.06681687 0.11954939 0.053286314
0003b0 30 80 b5 3c 80 e0 7c 3c ec 27 ef 3d 32 9e 68 3e
       0.022155851 0.015434384 0.11677536 0.22716597
0003c0 cc 27 16 3e f0 92 45 be 68 aa 71 be 56 09 42 be
       0.14663619 -0.19294333 -0.23600161 -0.18948874
0003d0 60 93 0e be 5c 6c 94 bd ec ac d9 bd 88 4f e9 3d
       -0.13923407 -0.072472304 -0.10628685 0.113921225
0003e0 d8 92 46 3e 78 b5 31 bd 50 c2 95 3d 60 28 cd 3d
       0.19391954 -0.043385953 0.07312453 0.100174665
0003f0 d4 9e 82 3d 8e e6 30 be f0 96 bc 3d 56 77 05 3e
       0.0637795 -0.1727545 0.092084765 0.13033804

network.2.bias f4 [32]
000000 00 00 00 00 00 00 00 00 00 00 00 00 00 00 00 00
       0.0 0.0 0.0 0.0
000010 00 00 00 00 00 00 00 00 00 00 00 00 00 00 00 00
       0.0 0.0 0.0 0.0
000020 00 00 00 00 00 00 00 00 00 00 00 00 00 00 00 00
       0.0 0.0 0.0 0.0
000030 00 00 00 00 00 00 00 00 00 00 00 00 00 00 00 00
       0.0 0.0 0.0 0.0
000040 00 00 00 00 00 00 00 00 00 00 00 00 00 00 00 00
       0.0 0.0 0.0 0.0
000050 00 00 00 00 00 00 00 00 00 00 00 00 00 00 00 00
       0.0 0.0 0.0 0.0
000060 00 00 00 00 00 00 00 00 00 00 00 00 00 00 00 00
       0.0 0.0 0.0 0.0
000070 00 00 00 00 00 00 00 00 00 00 00 00 00 00 00 00
       0.0 0.0 0.0 0.0

network.4.weight f4 [16, 32]
000000 05 fc 96 3e ce 6c a4 be 88 80 e9 bd 57 c8 b4 3e
       0.2948915 -0.3211426 -0.114014685 0.35309097
000010 f6 de 09 3e 56 16 14 3e 73 11 8a 3e aa ce 64 3e
       0.13463959 0.14461645 0.26966438 0.22344461
000020 5f 07 87 3e e1 4c a0 3e 1d fc b3 3e f1 38 ae 3e
       0.2637281 0.31308654 0.35153285 0.34027818
000030 48 e4 72 bd c9 77 82 3e bc 97 e4 bd 88 01 bc bd
       -0.059299737 0.25482014 -0.111617535 -0.091799796
000040 b5 24 8d 3e bf e3 2c be 00 47 e4 bc 01 e6 80 3e
       0.27567068 -0.16883753 -0.027865887 0.2517548
000050 40 02 35 bd 34 7f e8 3d c2 6a a5 be 75 42 94 3e
       -0.0441916 0.11352387 -0.32308012 0.28956953
000060 df ff 91 3e d6 a3 75 be 26 6c 9f be 6a 29 19 3e
       0.28515527 -0.2398828 -0.31137198 0.14957204
000070 c8 c6 10 be 78 13 11 be d4 5a 81 be aa 84 1b be
       -0.14138329 -0.14167583 -0.2526461 -0.15187326
000080 78 6f cb 3d 8a 3b 3e 3e 57 87 a9 3e 88 33 ac be
       0.0993337 0.185774 0.3311107 -0.33633065
000090 1a 24 4b be 62 99 d9 bd 4b 2e 85 3e 48 88 c4 bd
       -0.1983799 -0.106249586 0.2601188 -0.09596306
0000a0 33 d8 0f be 9f 7a 47 be 10 48 5c be 00 c8 b0 3b
       -0.14047317 -0.1948037 -0.21511865 0.0053949356
0000b0 ca 36 b2 be 94 f8 d9 bd 36 f9 6a 3e b6 00 f3 bd
       -0.34807426 -0.10643116 0.22946629 -0.1186537
0000c0 4c 9b f4 3d 52 f0 17 be b3 30 9d 3e e9 c7 8f 3e
       0.11943683 -0.14837769 0.30701217 0.28082207
0000d0 7a 5e 78 3e df 12 a0 3e d4 8a d1 bd 00 83 d7 bb
       0.2425479 0.31264398 -0.102315575 -0.0065768957
0000e0 88 c4 6c 3d 91 89 28 be cb 93 38 be 57 2b 95 3e
       0.057804614 -0.16458727 -0.18025129 0.29134628
0000f0 f4 92 8f be ca 98 75 3e e7 74 9d 3e aa ee 7a be
       -0.28041804 0.23984066 0.30753252 -0.24505106
000100 a8 c1 3f 3d 00 20 a5 ba 78 4f b2 3d 00 47 29 bd
       0.046815544 -0.0012598038 0.08706564 -0.041327477
000110 ae 9c 06 3e c3 62 a8 3e aa 3c 85 be 86 89 88 be
       0.13145706 0.3288785 -0.26022846 -0.26667422
000120 d0 b4 e9 bc 2e c7 45 3e ef dc b4 3e b9 64 ad be
       -0.0285286 0.19314262 0.3532481 -0.33865908
000130 3f 40 88 3e ca 9f 40 3e 93 a3 9d 3e 1e 5d 9c be
       0.26611516 0.18810955 0.3078886 -0.30539793
000140 1c 04 07 be 40 a5 f5 bb ed 37 8e 3e 35 85 51 be
       -0.13185161 -0.007496506 0.27777043 -0.2046097
000150 f7 dc 0e be 1b f7 6f be 08 f7 7d be 3d d9 ad be
       -0.13951479 -0.23434107 -0.24801266 -0.33954802
000160 9a 94 9d be a9 dd af be 68 2f 44 be 5e de 18 3e
       -0.30777436 -0.343488 -0.19158709 0.14928576
000170 d8 a9 1f be e0 95 6c bd 77 1c 8f 3e b4 46 75 be
       -0.15592134 -0.05776012 0.27951404 -0.23952752
000180 d0 78 1c 3d 20 e3 e4 3c 09 1a 0e be 12 3d a3 be
       0.038201153 0.027940333 -0.13877119 -0.3188253
000190 9d b4 ac 3e cd c9 94 3e 1d 62 63 be f6 97 2a 3e
       0.33731547 0.29060212 -0.22205396 0.16659531
0001a0 e0 7a 8f be 56 eb 9c be 67 d7 b3 be 4e 3d 89 be
       -0.28023434 -0.30648297 -0.35125276 -0.26804584
0001b0 50 f5 2e be 76 3b 26 3e e4 3d 8c 3d 1d 3a a1 be
       -0.17085767 0.1623362 0.06847742 -0.3148965
0001c0 ae d5 20 3e a0 a9 e6 3d 5e 4f 5f 3e 18 87 d8 3d
       0.15706512 0.11262822 0.2180762 0.10572642
0001d0 8a 3e 69 3e 37 6a 0e be 46 30 2d 3e 70 ab dc bc
       0.22777763 -0.13907705 0.16912946 -0.026937217
0001e0 86 77 5d be 00 a5 14 3c f6 60 39 be cf 69 18 be
       -0.21627626 0.009072542 -0.18103394 -0.14884113
0001f0 28 1f f1 3d e4 ff d5 3d 5e 74 e3 bd 43 7b 6d be
       0.11773521 0.10449198 -0.1110618 -0.23191552
000200 4e 10 dc bd 8c d1 ab 3d bc 88 99 3d 93 5e a0 3e
       -0.10745297 0.08389577 0.07496783 0.31322154
000210 5d 63 36 be de d9 2d 3e f8 2a dc 3d 8c cc ca bd
       -0.17811342 0.16977641 0.10750383 -0.099022955
000220 6a 10 82 be d8 e0 b0 3d 2b 1a 1d be ff dd 68 be
       -0.25403148 0.086366355 -0.15342014 -0.22740935
000230 32 05 75 3e 78 76 cd bd 85 05 8f be 30 63 08 be
       0.23927763 -0.10032362 -0.279339 -0.13319087
000240 58 f9 5c bd 1b 08 91 3e f4 23 cd 3d 96 5d 4e 3e
       -0.05394873 0.28326496 0.10016623 0.20152888
000250 0f 51 ac be d2 b7 45 be 4a bf d8 bd 00 6d c2 bc
       -0.33655593 -0.19308403 -0.105833605 -0.023733616
000260 68 1e 28 be 8f 36 ac 3e af 6f 9f be 1d 77 24 be
       -0.16417849 0.33635375 -0.31139895 -0.16061063
000270 34 47 d0 3d ff b4 9c 3e b2 90 a0 be ef 8d 6d be
       0.10169831 0.3060684 -0.31360394 -0.23198675
000280 4c 4f d3 bd 34 ed a6 bd 0b 4d a7 be ed 88 4e be
       -0.10317859 -0.08150712 -0.32675967 -0.2016942
000290 15 d9 84 3e 8b 67 81 be c2 ac 4c 3e cd fb 87 be
       0.2594687 -0.2527431 0.19987777 -0.26559296
0002a0 12 4c 24 be b0 f1 a7 bd c2 fd 91 be 40 47 9f bc
       -0.16044644 -0.08200395 -0.28513914 -0.019443154
0002b0 f0 f1 a3 bc 12 6d 12 3e 4e 84 34 3e 30 f0 fa bd
       -0.020012826 0.1429942 0.17628595 -0.122528434
0002c0 37 ee b2 be 2c c4 9f be da e0 93 be bc ed 13 be
       -0.34947369 -0.31204355 -0.28882486 -0.14446157
0002d0 90 cf 13 3e a2 f1 4b 3e 84 01 7a be 28 1b 92 3d
       0.14434648 0.19916394 -0.2441464 0.07134086
0002e0 b2 19 74 3e ae 9e a6 be a4 9d 13 be 0f 26 af 3e
       0.23837927 -0.32542938 -0.14415604 0.34208724
0002f0 b6 4e 57 3e 17 42 a8 be 50 8a e2 3c 44 62 a8 bd
       0.2102612 -0.32862923 0.027653843 -0.08221868
000300 11 60 3b be e8 31 ef 3d db 9c a7 3e c8 2c 88 3d
       -0.18298365 0.11679441 0.3273686 0.06649166
000310 fb 99 6c be 33 8f b3 3e c0 44 af bb 30 97 04 bd
       -0.23105614 0.3507019 -0.005348772 -0.032370746
000320 a4 84 d0 3d 4c cf 8f bd 38 8e 57 3d 9a d0 87 be
       0.10181549 -0.070219606 0.052625865 -0.26526338
000330 f8 92 b1 bd 60 10 11 3d 6a 11 08 3e d7 48 9e 3e
       -0.0867061 0.035416007 0.13287893 0.30914947
000340 1a 94 90 be 10 05 df bd ae 9e 5e 3e a9 f1 66 be
       -0.28237993 -0.108896375 0.21740219 -0.22553124
000350 1e ac fc bd 0a a0 5d 3e 63 2d a4 3e 6c e4 c0 3d
       -0.12337516 0.21643081 0.32065877 0.09418568
000360 3a 29 fd bd a8 d4 4b be 84 bb df bd 18 39 91 be
       -0.12361379 -0.1990534 -0.10924438 -0.28363872
000370 d0 b3 14 3d b1 25 71 be a9 2a 9f 3e 15 bf aa 3e
       0.036304295 -0.23549534 0.31087235 0.3334891
000380 23 66 2e be 4f 76 98 3e 58 86 9e be b0 63 ff 3c
       -0.1703115 0.29777762 -0.3096187 0.031175464
000390 bc 49 c1 bd 8d 38 b1 3e 7e 6c 20 3e 5c f5 9a be
       -0.09437892 0.34613457 0.15666386 -0.3026532
0003a0 10 1d d7 3d 08 6e 33 be a5 c2 2c be 96 d7 8e be
       0.1050359 -0.17522442 -0.16871126 -0.27898854
0003b0 98 0e 7d 3d e0 49 77 bc 2f 9f a6 3e 64 43 a9 be
       0.061781496 -0.015093297 0.32543322 -0.33059227
0003c0 a0 16 cc 3c ba de 9a be 48 cc a9 bd 44 59 c4 bd
       0.024913132 -0.30248052 -0.08290917 -0.095873386
0003d0 80 ea 49 be 60 62 91 3c 8a 72 a5 be 40 77 a9 bd
       -0.19718361 0.017747104 -0.3231395 -0.08274698
0003e0 83 de 5a be 60 eb 8a bc 88 4f b1 3d d9 60 ac be
       -0.21373944 -0.016957939 0.086577475 -0.3366764
0003f0 b6 f0 95 be 40 02 1e 3d b7 63 a6 3e a2 3c 88 be
       -0.2928521 0.038576365 0.3249795 -0.2660876

network.4.bias f4 [16]
000000 00 00 00 00 00 00 00 00 00 00 00 00 00 00 00 00
       0.0 0.0 0.0 0.0
000010 00 00 00 00 00 00 00 00 00 00 00 00 00 00 00 00
       0.0 0.0 0.0 0.0
000020 00 00 00 00 00 00 00 00 00 00 00 00 00 00 00 00
       0.0 0.0 0.0 0.0
000030 00 00 00 00 00 00 00 00 00 00 00 00 00 00 00 00
       0.0 0.0 0.0 0.0

network.6.weight f4 [1, 16]
000000 be 98 15 3f 4c 01 de 3e 00 5d 6e bb 0e cb b1 3e
       0.5843619 0.43360364 -0.003637135 0.3472523
000010 7c d8 d2 be 1a b2 11 bf 9e 65 c8 be 38 a8 c5 be
       -0.4118079 -0.56912386 -0.39140028 -0.38604903
000020 44 ab 3e 3e 53 c8 f1 be 00 3d ff bc 4c 05 35 3e
       0.1862002 -0.47223148 -0.031157017 0.17677802
000030 fb 82 fc be ac 03 f9 be b0 a0 a6 bd 7c 54 e9 be
       -0.4931868 -0.48635614 -0.081361175 -0.4557227
