saved_model.pt (torch, 16944 bytes, 7 tensors)

network.0.weight f4 [64, 10]
0	0xbd1761d4	-0.03695853
1	0xbe6a9fc7	-0.22912513
2	0x3be16a00	0.0068790913
3	0x3d884cc0	0.06655264
4	0xbe57e7b2	-0.21084478
5	0x3cbac800	0.022800446
6	0x3e7631a2	0.24042371
7	0xbe4aff75	-0.19824012
8	0xbe4b1644	-0.19832712
9	0x3e61057a	0.21974745
10	0x3cfcb430	0.030847639
11	0x3dcabe68	0.09899598
12	0xbe5de394	-0.21668845
13	0xbe14e7db	-0.14541571
14	0xbdcdc410	-0.100471616
15	0xbe27147c	-0.16316408
16	0xbda55722	-0.0807326
17	0x3e2bdbfc	0.16783136
18	0x3e01b7f6	0.12667832
19	0x3e55a1e6	0.2086254
20	0xbdaa4132	-0.08313216
21	0x3d5dcdf0	0.054151475
22	0xbdc96a8a	-0.09834774
23	0xbe24a29e	-0.16077659
24	0x3d926b8c	0.07149419
25	0x3df51b9c	0.11968157
26	0x3da5a650	0.08088362
27	0x3d34f3d0	0.04417783
28	0xbd53b538	-0.051686496
29	0x3e223afa	0.1584281
30	0x3e74537a	0.23859969
31	0x3e828ad9	0.25496557
32	0xbc7ffbe0	-0.0156240165
33	0xbe6bf4a6	-0.23042545
34	0x3dc0b994	0.09410396
35	0x3e8e739f	0.27822587
36	0xbdd61acc	-0.1045433
37	0x3e1e729a	0.15473405
38	0xbd387638	-0.045034617
39	0x3dc76594	0.09736171
40	0x3cdedd30	0.02720508
41	0xbe3ddb16	-0.18540606
42	0xbd858ace	-0.065206155
43	0x3dceb71c	0.10093519
44	0x3e75e356	0.24012503
45	0x3e8e0ad9	0.2774265
46	0x3e280bde	0.16410777
47	0xbd7f0a68	-0.062265784
48	0x3e03c3f4	0.12867719
49	0x3e2618c4	0.16220385
50	0x3e8fee67	0.28111574
51	0xbdabff94	-0.08398357
52	0xbb3e8500	-0.0029070973
53	0xbe8a8ace	-0.27059025
54	0x3e890ff3	0.2676998
55	0x3ddee848	0.10884148
56	0x3d42e580	0.04758215
57	0x3e900a45	0.28132835
58	0x3c133620	0.008985072
59	0x3e1b0422	0.15138295
60	0xbd861d62	-0.06548573
61	0xbe8375c8	-0.25675797
62	0xbe8e2f5e	-0.27770513
63	0xbd4072ec	-0.046984598
64	0x3d4d8760	0.05017793
65	0x3e22b1fe	0.15888211
66	0x3e12249c	0.14271778
67	0x3e50a96e	0.20377132
68	0xbd4711e0	-0.04860103
69	0x3e063b56	0.13108572
70	0xbe3b46f2	-0.18288782
71	0x3cdc6490	0.02690342
72	0x3debf6dc	0.11521694
73	0x3e32428a	0.17408195
74	0x3e2167a4	0.15762192
75	0xbe3905be	-0.18068597
76	0x3d014c20	0.03156674
77	0xbd14b410	-0.036304533
78	0xbe558e33	-0.20855026
79	0x3e8c5341	0.27407268
80	0xbd837c22	-0.06420161
81	0x3e85f7c5	0.26165596
82	0xbba42880	-0.005009711
83	0x3cc41bd0	0.023939043
84	0xbe482fc4	-0.19549471
85	0x3dce74b0	0.1008085
86	0xbd19ed98	-0.037580103
87	0xbe891465	-0.26773372
88	0xbd698f14	-0.057021216
89	0x3e5612a4	0.20905548
90	0x3c83cbd0	0.016088396
91	0x3c11d180	0.008900046
92	0xbd376fc0	-0.044784307
93	0xbe336500	-0.17518997
94	0xbe03e460	-0.12880087
95	0x3b95e780	0.004574716
96	0xbe2f1cf5	-0.1710089
97	0x3d799bd0	0.06093961
98	0x3e494cd4	0.19658214
99	0xbdc4f684	-0.096173316
100	0xbe73c01f	-0.23803757
101	0xbe858209	-0.2607577
102	0x3c6946e0	0.014238089
103	0x3d86c448	0.065804064
104	0xbd8c2b56	-0.06844203
105	0xbe87404c	-0.26416242
106	0x3e842795	0.2581145
107	0xbe325f64	-0.17419201
108	0xbe513b28	-0.20432723
109	0x3e0b9e14	0.13634521
110	0x3e8fabbd	0.28060713
111	0x3d8e4b20	0.06947923
112	0xbe266fb2	-0.16253546
113	0xbe787dba	-0.24266711
114	0xbe479aa4	-0.19492584
115	0xbe78e03d	-0.2430429
116	0x3d0c9630	0.034322917
117	0xbe5bc172	-0.21460512
118	0x3e1936c0	0.14962292
119	0x3e47b5c4	0.19502932
120	0x3de73fdc	0.11291477
121	0xbe806fec	-0.2508539
122	0xbe6f975d	-0.23397584
123	0x3e1080c6	0.14111623
124	0xbd335dc4	-0.043790594
125	0xbe820df3	-0.25401267
126	0x3e24884a	0.16067615
127	0xbda90a86	-0.0825396
128	0xbe429479	-0.1900195
129	0x3b1bfc80	0.0023801625
130	0x3e8a3b9f	0.26998612
131	0x3e05dbe4	0.13072163
132	0x3e5c2ac2	0.21500686
133	0xbe50e75e	-0.2040076
134	0x3e3948e2	0.18094209
135	0x3d6909b0	0.056894004
136	0x3dd9d6f0	0.10636699
137	0xbdabdbea	-0.08391555
138	0x3e6eb662	0.23311761
139	0xbdb69d02	-0.089166656
140	0xbdb642ec	-0.08899483
141	0xbe499cca	-0.19688717
142	0x3d3ebb28	0.046565205
143	0x3d97c8d4	0.07411352
144	0x3dbefe84	0.09325889
145	0xbe809a34	-0.25117648
146	0x3e354e78	0.17705715
147	0x3e62b6da	0.22140065
148	0xbe33b432	-0.17549208
149	0xbdfbd6a8	-0.12296802
150	0x3e145b32	0.14487913
151	0xbe7bd5f8	-0.24593341
152	0xbe65582a	-0.22396913
153	0x3e8b4541	0.27201274
154	0xbdb6750e	-0.08909045
155	0x3d6ff1d0	0.05858022
156	0x3e17367c	0.14766878
157	0x3e07d976	0.13266549
158	0x3e521bbc	0.20518392
159	0x3cbc8a70	0.02301523
160	0x3ddc46d8	0.107557
161	0xbe69a0d7	-0.22815262
162	0xbd06fcf8	-0.032956094
163	0xbceff540	-0.029291749
164	0x3cb14b80	0.021642447
165	0x3e8e6dc9	0.27818134
166	0x3e89aecd	0.26891175
167	0x3e598122	0.21240667
168	0xbdd8b460	-0.10581279
169	0x3e4db176	0.20087227
170	0xbdc53688	-0.09629542
171	0x3e16dd04	0.14732748
172	0xbe37d07e	-0.17950627
173	0x3e696f1a	0.22796288
174	0xbe871958	-0.26386523
175	0xbcc68eb0	-0.02423796
176	0xbe0b43bc	-0.13600057
177	0xbd964548	-0.07337433
178	0xbe730cc2	-0.23735335
179	0x3e710ef6	0.23540863
180	0xbd954158	-0.07287854
181	0x3e876d61	0.26450637
182	0x3cfd0b90	0.030889302
183	0x3e209c8c	0.15684718
184	0x3e63c55a	0.22243252
185	0x3e8eb435	0.27871862
186	0xbd9c3e5c	-0.076290816
187	0x3dba1234	0.09085503
188	0x3c5b78e0	0.013395518
189	0xbdbd4d00	-0.09243202
190	0xbdccdd10	-0.10003102
191	0xbe5ad496	-0.21370158
192	0x3e2a80b2	0.16650656
193	0xbe2df3e7	-0.16987573
194	0x3e7960ea	0.24353376
195	0xbde7b94c	-0.113146394
196	0x3e5377f0	0.20651221
197	0xbdf17fa8	-0.117919266
198	0xbe538bec	-0.20658845
199	0xbe520eb4	-0.20513421
200	0x3c8c5950	0.017132431
201	0xbd074928	-0.03302875
202	0xbe0d9bae	-0.13828918
203	0x3e0a404c	0.1350109
204	0x3d9ba2b4	0.075993925
205	0x3ba8c000	0.0051498413
206	0x3d313ab8	0.04326889
207	0xbdafec46	-0.085899875
208	0xbcda5f60	-0.026656806
209	0xbe3b7afa	-0.1830863
210	0xbb66c500	-0.0035212636
211	0xbd2f8f08	-0.042861015
212	0xbe656d75	-0.22405036
213	0x3e51d474	0.204912
214	0xbccb4c40	-0.024816632
215	0xbdb9975a	-0.09062071
216	0x3d7eb1b8	0.062181205
217	0xbd24910c	-0.04017739
218	0xbd7f2750	-0.06229335
219	0xbda28dd6	-0.07937209
220	0x3d021d48	0.031766206
221	0x3df78fd0	0.12087977
222	0x3e5b7714	0.21432143
223	0xbd8cb7f2	-0.06871022
224	0x3e19d35a	0.1502203
225	0xbe5ad09a	-0.21368638
226	0xbe8b62a4	-0.27223694
227	0xbd67a348	-0.0565522
228	0x3dae9dc0	0.08526182
229	0x3d5e6680	0.05429697
230	0xbe11a3bd	-0.14222617
231	0xbe5ab264	-0.21357113
232	0xbd98919c	-0.07449648
233	0xbe860697	-0.26176903
234	0xbd27a630	-0.040929973
235	0x3da7fa3c	0.08202025
236	0xbe4c50e9	-0.1995274
237	0xbe670879	-0.22561826
238	0x3e0cdc66	0.1375595
239	0x3e33ec9e	0.17570731
240	0xbcd30c20	-0.025762618
241	0xbe6a5cef	-0.22887014
242	0xbe15758b	-0.1459562
243	0xbe31ab01	-0.17350389
244	0xbd9f9e08	-0.07793814
245	0x3dcd8a94	0.10036197
246	0xbe20ad86	-0.15691194
247	0x3e50a186	0.20374116
248	0x3d8d7f6c	0.069090694
249	0x3e7204b6	0.2363461
250	0xbe67a5e0	-0.2262187
251	0x3e709286	0.23493394
252	0xbd4f7d6c	-0.05065672
253	0xbd7bcf14	-0.061476782
254	0x3e2bab7e	0.16764638
255	0x3dff70fc	0.12472722

network.0.bias f4 [64]
0	0x00000000	0.0
1	0x00000000	0.0
2	0x00000000	0.0
3	0x00000000	0.0
4	0x00000000	0.0
5	0x00000000	0.0
6	0x00000000	0.0
7	0x00000000	0.0
8	0x00000000	0.0
9	0x00000000	0.0
10	0x00000000	0.0
11	0x00000000	0.0
12	0x00000000	0.0
13	0x00000000	0.0
14	0x00000000	0.0
15	0x00000000	0.0
16	0x00000000	0.0
17	0x00000000	0.0
18	0x00000000	0.0
19	0x00000000	0.0
20	0x00000000	0.0
21	0x00000000	0.0
22	0x00000000	0.0
23	0x00000000	0.0
24	0x00000000	0.0
25	0x00000000	0.0
26	0x00000000	0.0
27	0x00000000	0.0
28	0x00000000	0.0
29	0x00000000	0.0
30	0x00000000	0.0
31	0x00000000	0.0
32	0x00000000	0.0
33	0x00000000	0.0
34	0x00000000	0.0
35	0x00000000	0.0
36	0x00000000	0.0
37	0x00000000	0.0
38	0x00000000	0.0
39	0x00000000	0.0
40	0x00000000	0.0
41	0x00000000	0.0
42	0x00000000	0.0
43	0x00000000	0.0
44	0x00000000	0.0
45	0x00000000	0.0
46	0x00000000	0.0
47	0x00000000	0.0
48	0x00000000	0.0
49	0x00000000	0.0
50	0x00000000	0.0
51	0x00000000	0.0
52	0x00000000	0.0
53	0x00000000	0.0
54	0x00000000	0.0
55	0x00000000	0.0
56	0x00000000	0.0
57	0x00000000	0.0
58	0x00000000	0.0
59	0x00000000	0.0
60	0x00000000	0.0
61	0x00000000	0.0
62	0x00000000	0.0
63	0x00000000	0.0

network.2.weight f4 [32, 64]
0	0xbdddc2c4	-0.10828164
1	0x3e0f0c32	0.13969496
2	0x3c882af0	0.016622037
3	0x3db7e2d8	0.08978814
4	0x3e23234e	0.15931436
5	0x3d250468	0.040287405
6	0x3e234f56	0.15948233
7	0xbe343100	-0.17596817
8	0xbdc03154	-0.093844086
9	0x3891f000	6.958842e-05
10	0x3e2f2db8	0.17107284
11	0xbe1ed0e4	-0.15509373
12	0xbd24eff8	-0.040267915
13	0xbe5b0580	-0.21388817
14	0xbe264048	-0.16235459
15	0x3e2ff3bc	0.17182821
16	0x3e144382	0.14478877
17	0xbd9e1038	-0.07717937
18	0x3e5fb728	0.21847212
19	0x3e319072	0.17340258
20	0xbe6e316e	-0.23261043
21	0xbc22d440	-0.0099383
22	0xbd8c41e0	-0.06848502
23	0x3e1e6822	0.15469411
24	0xbe2d9636	-0.16951832
25	0x3e482f66	0.19549331
26	0x3e0e1222	0.13874105
27	0x3e108880	0.1411457
28	0x3e7e847e	0.2485523
29	0xbdab76bc	-0.08372256
30	0xbdeafdf8	-0.11474222
31	0x3e02541a	0.12727395
32	0x3e1e12ba	0.15436831
33	0xbda8a2b0	-0.08234155
34	0x3d5c2b68	0.053752333
35	0x3e57cff0	0.21075416
36	0x3cdf60c0	0.027267814
37	0x3e462d20	0.19353151
38	0xbe6ad846	-0.22934064
39	0x3e29f012	0.16595486
40	0x3ddf0140	0.1088891
41	0x3e176fd8	0.14788759
42	0xbc78b520	-0.015179902
43	0x3e527c3c	0.20555204
44	0xbc049360	-0.008091778
45	0x3da3f4e4	0.080056936
46	0xbdf20e20	-0.118191004
47	0x3e44e118	0.19226491
48	0x3bce7900	0.0063010454
49	0xbe776c0c	-0.2416231
50	0xbe4d61b0	-0.20056796
51	0xbe16078e	-0.1465132
52	0x3e1cc4e2	0.1530948
53	0x3c3c6be0	0.011500329
54	0xbdf0a750	-0.11750662
55	0x3e4341bc	0.19068044
56	0x3b396180	0.0028286874
57	0x3df3dce8	0.11907369
58	0xbd290a98	-0.04126987
59	0xbe275ca8	-0.1634394
60	0x3e791a44	0.24326426
61	0xbe2b2dc8	-0.16716683
62	0x3e23f898	0.160128
63	0xbdb95c3c	-0.090507954
64	0x3e548a88	0.2075597
65	0xbe7dcce8	-0.24785197
66	0x3e6b8c0a	0.2300264
67	0x3bc72d40	0.0060783923
68	0xbe6f6efa	-0.23382178
69	0xbe223c4a	-0.15843311
70	0x3db92cc8	0.090417445
71	0x3da1a0f0	0.078920245
72	0x3d655a08	0.055994064
73	0x3e135068	0.14386141
74	0x3e653bfe	0.22386166
75	0x3e6e832a	0.23292223
76	0xbe07f754	-0.13277942
77	0x3e2220a2	0.15832761
78	0x3e697240	0.22797489
79	0x3e1dfeb0	0.15429187
80	0xbddfe2a0	-0.10931897
81	0x3e6b64f6	0.22987732
82	0xbd619e88	-0.055082828
83	0xbd3c1598	-0.04591903
84	0x3df25dbc	0.11834285
85	0xbc40d080	-0.01176846
86	0x3e50392c	0.2033431
87	0xbde40238	-0.11133236
88	0x3e1599ae	0.14609405
89	0xbc815bc0	-0.01579082
90	0xbc9fef80	-0.019523382
91	0xbd439f28	-0.047759205
92	0x3e01596e	0.12631771
93	0xbd9b9934	-0.075975806
94	0x3e15c978	0.14627635
95	0xbda0340c	-0.07822427
96	0xbdc3cf18	-0.095609844
97	0xbdf5e9e8	-0.12007505
98	0xbe0ba0ae	-0.13635513
99	0x3e3696c6	0.17830953
100	0x3a926700	0.0011169612
101	0xbe319070	-0.17340255
102	0x3e488446	0.19581708
103	0xbc99b280	-0.018761873
104	0xbdeb4800	-0.11488342
105	0xbd14c6a0	-0.036322236
106	0xbe55bf56	-0.2087377
107	0xbe498af2	-0.1968191
108	0x3e756940	0.23965931
109	0x3e4a0518	0.19728506
110	0x3c02a580	0.007974029
111	0xbd27d4e0	-0.040974498
112	0xbe2c70c2	-0.16839889
113	0x3ca5b200	0.020226479
114	0x3dc07a60	0.09398341
115	0xbd134e08	-0.03596309
116	0x3de8f9ec	0.11375794
117	0xbe49ff52	-0.19726303
118	0x3df4d908	0.11955458
119	0xbd934bcc	-0.071921915
120	0x3aba5f00	0.0014218986
121	0x3e5d480c	0.21609515
122	0xbd6ea3c0	-0.058261633
123	0x3c679540	0.014134705
124	0xbdebe050	-0.115173936
125	0xbc5b8e80	-0.013400674
126	0xbe743764	-0.23849255
127	0xbe5ef638	-0.21773612
128	0xbe33366c	-0.17501229
129	0x3e247380	0.16059685
130	0x3dc58ef4	0.09646407
131	0xbc6b8660	-0.014375299
132	0x3e41cb60	0.18925238
133	0xbdc820ac	-0.09771857
134	0xbe13e03c	-0.14441007
135	0xbc0e7e80	-0.008697152
136	0x3d71d458	0.059040397
137	0x3da68f30	0.081327796
138	0xbe49dd56	-0.19713339
139	0x3d0115d8	0.031514972
140	0xbe7ca618	-0.24672735
141	0x3e2f8f08	0.17144406
142	0xbdd8eaec	-0.10591683
143	0xbdc89c90	-0.09795487
144	0x3e0b588e	0.13608
145	0xbe22bc94	-0.1589225
146	0xbe3dbaa4	-0.18528229
147	0x3bf9c700	0.0076225996
148	0xbe3a6552	-0.18202713
149	0xbe7b8b54	-0.24564868
150	0xbd1bfed8	-0.038084835
151	0xbdc520b4	-0.09625378
152	0xbdbb9ba8	-0.091605484
153	0xbe168ef4	-0.1470297
154	0xbb7d7580	-0.0038674772
155	0xbcd97db0	-0.02654919
156	0xbcf73020	-0.030174315
157	0x3ddbfc74	0.10741511
158	0xbe037628	-0.12838042
159	0xbcb4b010	-0.02205661
160	0x3d4acdd8	0.049512714
161	0x3e0eb8bc	0.13937658
162	0xbe0401f8	-0.12891376
163	0xbdb3cb68	-0.08779031
164	0xbdf435d8	-0.119243324
165	0xbd37f030	-0.044906795
166	0x3d0dbf78	0.034606427
167	0x3dc45524	0.09586552
168	0x3e56115a	0.20905057
169	0x3da6e2a8	0.081487
170	0xbe7b5254	-0.24543124
171	0x3d3b88d0	0.04578477
172	0xbcdbb1a0	-0.026818097
173	0x3e0ea6de	0.13930842
174	0xbe0df24c	-0.1386196
175	0xbe19fdd0	-0.15038228
176	0xbe72ab58	-0.23698175
177	0xbdcb8714	-0.099378735
178	0xbc68fe80	-0.014220834
179	0x3d962e9c	0.07333109
180	0x3e1ede20	0.15514421
181	0x3e5a5f54	0.21325427
182	0x3c811d90	0.015761167
183	0xbc11f6c0	-0.008908927
184	0x3e43d2e4	0.19123417
185	0x3e6ce0a8	0.23132575
186	0xbdf56290	-0.1198169
187	0x3db58b68	0.0886448
188	0x3e5de78c	0.2167036
189	0xbe42b516	-0.19014391
190	0x3e7cbf10	0.2468226
191	0x3dba7d2c	0.09105906
192	0x3dd980c4	0.10620263
193	0x3e3b5a70	0.18296218
194	0x3dafa2f0	0.08576
195	0xbe00955a	-0.12556973
196	0x3e04e83a	0.12979212
197	0xbe6628b2	-0.22476462
198	0x3e5ed5e8	0.21761286
199	0x3e1e8afa	0.15482703
200	0xbde16c50	-0.11006987
201	0x3d9e4178	0.07727331
202	0x3ddfcaec	0.10927376
203	0xbd68a698	-0.0567995
204	0xbe105db0	-0.14098239
205	0xbe4784de	-0.19484279
206	0xbce2bb00	-0.02767706
207	0x3e43403c	0.19067472
208	0xbd202680	-0.039099216
209	0x3d1b0960	0.037850738
210	0x3d0bb600	0.034109116
211	0xbe734348	-0.23756135
212	0xbe307108	-0.17230618
213	0x3de09374	0.109656245
214	0xbe7d779a	-0.24752656
215	0x3e35e3ee	0.1776273
216	0x3d83df1c	0.06439039
217	0x3e2c6724	0.1683622
218	0xbbcaeb80	-0.0061926246
219	0xbd8277b4	-0.06370488
220	0xbe1a492a	-0.15066972
221	0xbdceb6e0	-0.100934744
222	0x3e5b5bc2	0.21421722
223	0x3e3a439c	0.18189853
224	0xbd99e3c8	-0.07514149
225	0xbe2ec0ae	-0.17065689
226	0xbcbb3a60	-0.022854984
227	0xbe3def86	-0.18548402
228	0x3db6bb30	0.08922422
229	0x3d2743d8	0.040836185
230	0x3e5117e8	0.20419276
231	0xbdbd449c	-0.09241602
232	0xbd2020f0	-0.03909391
233	0x3dd45748	0.1036821
234	0x3b08ec00	0.002089262
235	0x3e68985e	0.22714373
236	0x3d902eb8	0.07040161
237	0x3e3bd8cc	0.1834442
238	0xbdd6d4d4	-0.104898125
239	0xbe2a9dae	-0.16661713
240	0x3e3bf7d6	0.1835626
241	0xbe304804	-0.17214972
242	0x3e39fce0	0.1816287
243	0xbdfd209c	-0.12359735
244	0x3e67ae5c	0.22625107
245	0x3e3d6b6a	0.18498006
246	0x3e372f76	0.17889199
247	0x3df01970	0.11723602
248	0xbe3de1ea	-0.1854321
249	0x3e4232c8	0.18964684
250	0xbe6da096	-0.2320579
251	0x3d4fee28	0.050764233
252	0xbe7e4ad6	-0.24833235
253	0xbc03ce40	-0.008044779
254	0xbd6efdd8	-0.058347553
255	0x3c9d9200	0.019234657

network.2.bias f4 [32]
0	0x00000000	0.0
1	0x00000000	0.0
2	0x00000000	0.0
3	0x00000000	0.0
4	0x00000000	0.0
5	0x00000000	0.0
6	0x00000000	0.0
7	0x00000000	0.0
8	0x00000000	0.0
9	0x00000000	0.0
10	0x00000000	0.0
11	0x00000000	0.0
12	0x00000000	0.0
13	0x00000000	0.0
14	0x00000000	0.0
15	0x00000000	0.0
16	0x00000000	0.0
17	0x00000000	0.0
18	0x00000000	0.0
19	0x00000000	0.0
20	0x00000000	0.0
21	0x00000000	0.0
22	0x00000000	0.0
23	0x00000000	0.0
24	0x00000000	0.0
25	0x00000000	0.0
26	0x00000000	0.0
27	0x00000000	0.0
28	0x00000000	0.0
29	0x00000000	0.0
30	0x00000000	0.0
31	0x00000000	0.0

network.4.weight f4 [16, 32]
0	0x3d2737e0	0.04082477
1	0xbe7c550e	-0.24641821
2	0x3d176ba0	0.036967874
3	0x3af7b800	0.0018899441
4	0x3d41d008	0.047317535
5	0xbe68c654	-0.22731906
6	0x3e2be04a	0.16784778
7	0xbe396d64	-0.18108135
8	0x3e30cd2e	0.1726577
9	0x3dce8f4c	0.100859255
10	0xbe314c91	-0.17314364
11	0x3e53569a	0.20638505
12	0xbea50d27	-0.32236597
13	0x3e855661	0.26042464
14	0xbe7e1e46	-0.24816236
15	0xbd0a4b40	-0.03376317
16	0xbd9b2e4c	-0.0757719
17	0x3e166b76	0.1468943
18	0xbe984558	-0.29740405
19	0x3eaca459	0.33719137
20	0x3e811eb7	0.25218746
21	0x3ea26aa7	0.31721994
22	0x3e8381a1	0.25684837
23	0xbc609d60	-0.013709396
24	0xbd90b9b8	-0.07066673
25	0xbe4234e3	-0.18965487
26	0xbe5992e6	-0.21247444
27	0x3dd5a10c	0.10431108
28	0xbe6264f5	-0.22108825
29	0xbe735c34	-0.23765641
30	0x3ded0a50	0.115742326
31	0x3e05b2e0	0.13056517
32	0x3d752ee8	0.059859186
33	0xbe0cd0f4	-0.13751584
34	0x3ea75685	0.32683197
35	0x3e37831e	0.17921111
36	0x3d3f8450	0.046757042
37	0x3e688156	0.22705588
38	0xbda30630	-0.079601645
39	0xbd193b80	-0.03741026
40	0x3e863a93	0.26216564
41	0xbea24797	-0.31695244
42	0x3e6603de	0.22462413
43	0xbe187a48	-0.14890397
44	0x3d821c94	0.06353107
45	0xbeab2927	-0.33429834
46	0xbe6262a6	-0.22107944
47	0x3e75da52	0.24009064
48	0x3d9bbd78	0.07604498
49	0x3da7a894	0.081864506
50	0x3e74599e	0.23862311
51	0xbe729092	-0.23687962
52	0x3e97562f	0.2955794
53	0x3bdca4c0	0.006733507
54	0xbbd9d880	-0.0066481233
55	0x3e6f988a	0.23398033
56	0x3e149162	0.14508584
57	0x3e5ffb9a	0.21873322
58	0xbe704abe	-0.23466012
59	0xbc5bc640	-0.013413966
60	0x3ce40dd0	0.027838618
61	0xbea62f43	-0.32457933
62	0xbe22193c	-0.15829939
63	0x3e81c68d	0.25346795
64	0xbe29eb1f	-0.16593598
65	0xbbfc6980	-0.0077030063
66	0xbe8b7161	-0.2723494
67	0x3e5d767e	0.21627232
68	0x3d4308c0	0.047615767
69	0x3de04534	0.109506994
70	0x3e59c13e	0.21265122
71	0xbdf148b2	-0.11781444
72	0x3e70b33e	0.23505875
73	0x3e74c286	0.2390233
74	0xbdf03974	-0.11729708
75	0xbdcd95b0	-0.10038316
76	0xbd96ccf4	-0.073633105
77	0x3e9d3d05	0.30710617
78	0x3da164cc	0.078805536
79	0xbeb45fc9	-0.35229328
80	0x3e4ad6ca	0.19808498
81	0xbea15935	-0.31513372
82	0x3e46da8a	0.19419304
83	0x3dbb28d4	0.09138647
84	0xbd5f7c88	-0.05456212
85	0x3e03afa8	0.12859976
86	0x3e1ed002	0.15509036
87	0xbeb0dda6	-0.34544104
88	0x3e1fc162	0.15601113
89	0xbddc3670	-0.10752571
90	0x3c5938a0	0.013258129
91	0xbe9df5c4	-0.30851567
92	0xbe9bd42b	-0.3043531
93	0xbcddef90	-0.027091771
94	0x3da0460c	0.078258604
95	0xbdc259d4	-0.094897896
96	0x3e5cc9a2	0.21561292
97	0xbea2a5ec	-0.31767213
98	0x3e1d80f2	0.1538122
99	0xbe3ff7a2	-0.18746808
100	0x3d9b2744	0.07575849
101	0xbe70512f	-0.23468469
102	0xbe7f654a	-0.24940982
103	0x3ea384b1	0.31937173
104	0x3d9b6770	0.075880885
105	0xbe24522e	-0.16046974
106	0x3e75903a	0.239808
107	0xbea28888	-0.3174479
108	0xbdcddc24	-0.10051754
109	0xbe31cca7	-0.17363225
110	0xbdc3dfe0	-0.09564185
111	0xbe8e35a1	-0.2777529
112	0xbe6bf2fe	-0.23041913
113	0x3e889d03	0.2668229
114	0x3de869d8	0.11348313
115	0x3ea4531f	0.32094666
116	0x3d6f8c38	0.058483332
117	0xbe0b571e	-0.13607451
118	0xbe119a02	-0.14218906
119	0xbe6f27a0	-0.2335496
120	0x3da01958	0.07817334
121	0x3e25f142	0.16205314
122	0x3e5ad28a	0.21369377
123	0x3d96f57c	0.07371041
124	0x3ea447a3	0.32085904
125	0x3e4342a2	0.19068387
126	0xbd0b7148	-0.03404358
127	0x3e068bbc	0.13139242
128	0xbe9ef30e	-0.3104481
129	0xbeae44bb	-0.34036812
130	0x3c852150	0.016251236
131	0xbc6808a0	-0.014162213
132	0x3db830a4	0.089936525
133	0x3e12bf36	0.14330754
134	0xbe7f62a0	-0.24939966
135	0xbd372468	-0.044712454
136	0x3e889a43	0.26680192
137	0xbea82019	-0.3283699
138	0x3c967f00	0.018371105
139	0xbe30bddf	-0.1725993
140	0x3dc2a7e8	0.09504682
141	0x3e7d457a	0.24733534
142	0xbe48115e	-0.19537875
143	0x3eaddbdf	0.3395681
144	0x3c1f7680	0.009732842
145	0xbd02dfd0	-0.031951725
146	0x3e402a42	0.1876612
147	0x3e186106	0.14880762
148	0xbe99f100	-0.3006668
149	0xbd107038	-0.03526327
150	0xbe5fbb70	-0.21848845
151	0xbcbda3f0	-0.02314946
152	0x3e04988a	0.12948814
153	0xbea9cb9c	-0.33163154
154	0x3d587c78	0.052853078
155	0x3e032d66	0.12810287
156	0x3de48cc0	0.111596584
157	0xbd170078	-0.03686568
158	0xbe14b6ea	-0.14522901
159	0xbe1bfb1b	-0.15232508
160	0xbeb4883a	-0.35260183
161	0xbe196b68	-0.14982378
162	0x3e3ecb4e	0.18632242
163	0x3e3cf11a	0.18451348
164	0x3d0d8100	0.034546852
165	0xbe8ef29a	-0.27919465
166	0x3e6ae7ba	0.22939959
167	0x3e2f600a	0.1712648
168	0x3d41c5c0	0.04730773
169	0xbdc52650	-0.09626448
170	0x3e45765a	0.19283429
171	0xbe8468d5	-0.2586123
172	0x3dfe6adc	0.124227256
173	0x3dab99d4	0.0837895
174	0xbe9efc1f	-0.31051728
175	0x3e70069e	0.23440024
176	0xbeb14e81	-0.34630206
177	0xbe0ec709	-0.13943113
178	0xbeb4b247	-0.35292265
179	0xbde394ea	-0.111123875
180	0x3e647c66	0.22313079
181	0x3e0091e8	0.12555659
182	0xbe1ce2fe	-0.15320966
183	0x3e549176	0.20758614
184	0xbe0e9be4	-0.13926655
185	0xbe88de0d	-0.2673191
186	0x3d6d52d8	0.057940334
187	0xbea2a430	-0.3176589
188	0x3e254f9a	0.16143647
189	0x3dbdbcf0	0.092645526
190	0x3e53f7ce	0.20699999
191	0x3e8cbd0b	0.27487978
192	0x3e1d279a	0.15347138
193	0xbea6113a	-0.32435018
194	0x3e025988	0.12729466
195	0x3d1f2268	0.03885117
196	0x3e7b5daa	0.24547449
197	0xbd1783d8	-0.03699097
198	0x3db48c70	0.08815849
199	0xbdfd0ff4	-0.123565584
200	0xbe3cebc0	-0.18449306
201	0xbeaf0379	-0.34182337
202	0xbe02f33a	-0.12788096
203	0x3d201820	0.039085507
204	0x3eb1380f	0.34613082
205	0xbe8b936d	-0.27260914
206	0xbe54fb78	-0.20799053
207	0x3e807575	0.25089613
208	0x3e998dad	0.29990903
209	0x3eb48067	0.35254213
210	0x3eb32ec9	0.34996632
211	0x3e99604f	0.2995629
212	0x3d9fa09c	0.07794306
213	0x3e861831	0.26190332
214	0x3e216cb6	0.15764126
215	0x3e61951e	0.2202954
216	0xbe58be42	-0.21166328
217	0xbe13089f	-0.14358757
218	0x3e645f9a	0.22302094
219	0x3d737770	0.059440076
220	0xbe5a1d78	-0.21300304
221	0x3ea1bc19	0.3158882
222	0xbd713138	-0.05888483
223	0x3c964990	0.018345624
224	0xbeaebc69	-0.3412812
225	0xbe0e97f8	-0.13925159
226	0xbe15c384	-0.14625365
227	0xbda4cd00	-0.08046913
228	0xbe04e000	-0.12976074
229	0x3d6cdd68	0.057828337
230	0xbd2b1110	-0.04176432
231	0xbe93d9be	-0.28877062
232	0x3e9dfd69	0.308574
233	0x3e83f1e7	0.25770494
234	0xbe9e22da	-0.30885965
235	0x3cbcade0	0.023032129
236	0xbe70d824	-0.23519951
237	0xbea6f06b	-0.326053
238	0x3e6bf3fa	0.23042288
239	0xbdca74ec	-0.09885582
240	0xbda6a8ec	-0.08137688
241	0x3e01ba6c	0.1266877
242	0x3ea0a2b1	0.31374124
243	0x3e66ba02	0.22531894
244	0xbe198c7c	-0.14994997
245	0x3ca64650	0.0202972
246	0x3c17b220	0.009258777
247	0x3d92d3c8	0.071693
248	0xbdce0c2c	-0.10060915
249	0xbc9dd870	-0.019268245
250	0xbd091a30	-0.03347224
251	0x3e7fba0a	0.24973312
252	0xbc9ccb30	-0.019139856
253	0x3e744b72	0.23856905
254	0x3ea649d3	0.32478198
255	0xbe540f0a	-0.20708862

network.4.bias f4 [16]
0	0x00000000	0.0
1	0x00000000	0.0
2	0x00000000	0.0
3	0x00000000	0.0
4	0x00000000	0.0
5	0x00000000	0.0
6	0x00000000	0.0
7	0x00000000	0.0
8	0x00000000	0.0
9	0x00000000	0.0
10	0x00000000	0.0
11	0x00000000	0.0
12	0x00000000	0.0
13	0x00000000	0.0
14	0x00000000	0.0
15	0x00000000	0.0

network.6.weight f4 [1, 16]
0	0xbec4752c	-0.38370645
1	0xbe8c52dd	-0.2740697
2	0xbe4d952c	-0.20076436
3	0x3e88ad2c	0.2669462
4	0xbe95467f	-0.29155347
5	0x3ea6c8a8	0.32574964
6	0x3df4a0d0	0.11944735
7	0x3e0795bc	0.13240713
8	0xbecc3f36	-0.39891976
9	0xbe4d6570	-0.20058227
10	0xbdb53d58	-0.08849591
11	0x3dcda178	0.10040563
12	0xbe858dce	-0.2608475
13	0xbd908338	-0.07056278
14	0x3dc2fa28	0.0952037
15	0x3ea7477e	0.32671732
