saved_model.pt (torch, 16944 bytes, 7 tensors)

network.0.weight f4 [64, 10]
00000000: 105f e7bc 1e37 473e 6c44 ee3d a849 333d
00000010: 7c96 19bd 50cc 963c 8031 083c fd37 863e
00000020: 361f cabd a896 dfbd 10ef 103d e875 893d
00000030: c0c3 633c 7691 89be 880b 86bd c8c8 8abe
00000040: 916a 46be 80ba c13c 992c 8d3e 4061 0bbc
00000050: 56fa 463e 7847 373d a4d6 eb3d 5673 bebd
00000060: c09e 71bd e38c 1abe 2a26 383e f0a8 4b3d
00000070: 7d8b 30be 26e4 36be c469 e93d 50ff 443d
00000080: 4956 83be 5c8f 1c3e 8e05 80be 3a9b 683e
00000090: 4612 713e 3c46 2cbe a79d 84be d06c 4bbd
000000a0: 347f 53be 84e2 8ebe 10e0 2abe 34aa 283e
000000b0: e17f 8b3e a04b a33c bcab fc3d 00ef 403b
000000c0: e6c0 6f3e 83b2 64be 6481 e8bd d8eb 1fbd
000000d0: a835 463e 6eff ffbd 1270 77be 86e8 88be
000000e0: 58dc c33d 2809 8bbd 3340 8b3e 2048 22bc
000000f0: 94fd ffbd 6230 063e ba5b 013e 09fa 883e
00000100: 043a 4ebd 4e7d 68be f6a1 43be c8dc 303d
00000110: 4f42 7ebe f401 333e 3814 493d 6040 0d3e
00000120: ebc0 0dbe d8b8 643d 3b31 1abe 38d9 e2bd
00000130: 8424 07be 0b5f 5cbe 63a8 07be d662 a7bd
00000140: c324 8f3e 9c30 49be c44f 42be 28af 3c3d
00000150: 20e9 fe3c 24ca f43d f4b3 563e 181b 2a3d
00000160: 1194 8bbe 3246 7ebe 5e4b 62be f4a9 21be
00000170: 3b9a 863e 240c b23d 40ba 8f3d 5476 e6bd
00000180: 56b1 37be 3702 7bbe 50c7 b53c 181d 50be
00000190: b0f5 2c3e fd0a 83be bb40 8c3e ba4e 633e
000001a0: 7b3a 8cbe 7e0f ecbd 7cda 30bd 7083 8f3d
000001b0: 6e61 5d3e 404e e2bb 1d9b 81be 2094 273d
000001c0: e8be 8fbe db58 81be fc1a 503e 4be1 8b3e
000001d0: f067 9c3c 701c 1e3e beba 19be 522d 633e
000001e0: 66ea fdbd 2670 2fbe ef9f 893e d20c 5fbe
000001f0: a475 8f3d 64c8 013e 4a27 83be f82e e1bd
00000200: 006f 33bc 0a29 063e 3095 d5bc b8a3 34bd
00000210: 6041 163e 86d0 8fbe e982 36be 1806 823d
00000220: 701f 5cbe 7208 8ebd 9ef6 e5bd 3261 473e
00000230: 9459 6bbe 8e79 41be ca2c 36be 40eb 543c
00000240: bdb1 843e 2013 edbc 6ad4 733e 5405 f5bd
00000250: bb46 79be 2284 48be d529 8d3e 97c1 873e
00000260: f769 1bbe 88a8 053d 19d3 0bbe 244f 9fbd
00000270: 759d 1cbe 80f6 b43b 2814 21bd b645 8dbe
00000280: 78ed 553d 08f4 c8bd 8ce6 56be c60d 213e
00000290: 00f7 1b3d 5816 033d 1748 39be ea05 3a3e
000002a0: 949e 45bd 346f 41bd f826 69be 48cf 0b3e
000002b0: 5d1a 8bbe d6a6 38be 4066 093e 4a79 2a3e
000002c0: e281 e8bd 1664 26be 1966 863e 3aac 0cbe
000002d0: 7abc a4bd 4e2a 7e3e 4828 563d e784 17be
000002e0: e08e 4c3c d27a 3c3e 80b8 52bd b497 b03d
000002f0: c8a5 29be 54ee 2f3e e4a5 52bd 0005 c9ba
00000300: 309c 6b3d 2a83 643e 938a 81be 00c4 e9bc
00000310: 3050 1abd d054 01bd 169e 6f3e 04a3 39be
00000320: 8cce 7ebe 07ba 833e 608f 81bd 9ddd 8f3e
00000330: 4093 1cbd cb3b 8a3e a29d 0cbe 1b84 3dbe
00000340: ff44 90be c04a 79bc ef81 823e 66ed 7e3e
00000350: dc8c 95bd 0a39 5d3e 4c92 8dbe e5d1 8d3e
00000360: f036 cdbc 4a0d 753e fe90 7a3e 549b 83be
00000370: 1002 043e 4c03 973d f9ab 8f3e 9ead 0b3e
00000380: f26b 0cbe 9e57 52be 2b4c 8b3e 2a93 693e
00000390: b4d4 283e 66a1 4bbe a47c 87be 5a09 73be
000003a0: 50d9 853d f056 01bd 1043 80bc 6ae1 663e
000003b0: 6a44 403e d45d 933d 9ad0 443e 22e5 49be
000003c0: 14e3 b73d f816 26be 80f4 00bc b6b3 5c3e
000003d0: f722 873e 9055 60bd c346 8a3e 660d 8cbd
000003e0: 8339 8b3e 3893 adbd c48f 3cbe e0e6 483e
000003f0: 4a9b 613e 3e76 80bd 02da 35be 8c02 75be
-0.028243572 0.1945462 0.11634144 0.043771416 -0.03749703 0.01840797 0.008312583 0.2621459
-0.09869234 -0.10917407 0.035384238 0.06711942 0.013901651 -0.2686879 -0.06545168 -0.2710631
-0.1937659 0.0236485 0.27573088 -0.008507073 0.19431433 0.044745892 0.11515549 -0.09299342
-0.058989286 -0.15092807 0.17983308 0.04972166 -0.1724071 -0.17860469 0.11397126 0.048095047
-0.25651768 0.15289062 -0.25004238 0.22715464 0.23542127 -0.16823667 -0.2590153 -0.04966432
-0.20653993 -0.27907193 -0.16687036 0.16471177 0.27246 0.019933522 0.12337443 0.002943933
0.23413429 -0.22333722 -0.11352804 -0.039043278 0.19356406 -0.12499891 -0.24163845 -0.267399
0.095635116 -0.06788856 0.27197418 -0.009904891 -0.12499538 0.13104394 0.12632647 0.26753262
-0.050348297 -0.2270405 -0.19104752 0.043179303 -0.24829982 0.17481214 0.049091548 0.13794088
-0.13843124 0.055840343 -0.15057842 -0.110765874 -0.13197523 -0.21520631 -0.13247828 -0.08173148
0.27957734 -0.1964745 -0.1897574 0.04606548 0.031117022 0.11952618 0.20967084 0.041529745
-0.27261403 -0.24831465 -0.22099063 -0.15787488 0.26289544 0.08693722 0.07017946 -0.11253038
-0.17938742 -0.24512564 0.022189766 -0.20323598 0.16890597 -0.2559432 0.27393135 0.22198
-0.27388367 -0.115263924 -0.043177113 0.070074916 0.21619198 -0.006906301 -0.25313655 0.040912747
-0.28075337 -0.25263104 0.20322794 0.27320322 0.01909253 0.15440536 -0.15012643 0.22185257
-0.123982236 -0.17132625 0.26879832 -0.21782234 0.0700486 0.12674099 -0.25615913 -0.10995287
-0.010951757 0.13101593 -0.026072115 -0.044101447 0.14673376 -0.28088778 -0.17823376 0.063488185
-0.21496367 -0.069352046 -0.11228679 0.19470671 -0.2298339 -0.18894026 -0.17790523 0.012995541
0.25916854 -0.028939784 0.23811498 -0.11963907 -0.24343388 -0.19581655 0.27570978 0.26514885
-0.15177141 0.032631427 -0.13654746 -0.07778767 -0.1529444 0.005522549 -0.039325863 -0.27592248
0.05222842 -0.0981217 -0.20986384 0.1572791 0.038077354 0.03200373 -0.18093906 0.18166319
-0.048246935 -0.047225192 -0.22768772 0.1365329 -0.2716855 -0.18032393 0.13417912 0.1664783
-0.11352898 -0.16249117 0.2624977 -0.13737574 -0.080437616 0.24820825 0.05228451 -0.14796792
0.012485236 0.18406227 -0.051445484 0.08622685 -0.16567147 0.17180759 -0.051427737 -0.0015336573
0.057522 0.2231566 -0.25301036 -0.028535843 -0.03767413 -0.031575024 0.23400149 -0.18128592
-0.24883479 0.25727865 -0.06326175 0.28098765 -0.038226366 0.26998743 -0.13732007 -0.18507425
-0.2817764 -0.015215576 0.25489756 0.24895248 -0.073022574 0.2160379 -0.27650678 0.276992
-0.02505061 0.2393085 0.24469373 -0.25704443 0.12891412 0.07373676 0.28060892 0.13640448
-0.13713053 -0.20541236 0.2720655 0.22810045 0.1648739 -0.19885787 -0.2646228 -0.23734036
0.0653559 -0.03157705 -0.015656978 0.22546926 0.18776098 0.07195631 0.192202 -0.19716313
0.089788586 -0.162197 -0.007870793 0.2155293 0.26393864 -0.0547691 0.27007112 -0.06838493
0.27192315 -0.084753454 -0.18414217 0.19619322 0.22031894 -0.06272553 -0.17758945 -0.23926753

network.0.bias f4 [64]
00000000: 0000 0000 0000 0000 0000 0000 0000 0000
00000010: 0000 0000 0000 0000 0000 0000 0000 0000
00000020: 0000 0000 0000 0000 0000 0000 0000 0000
00000030: 0000 0000 0000 0000 0000 0000 0000 0000
00000040: 0000 0000 0000 0000 0000 0000 0000 0000
00000050: 0000 0000 0000 0000 0000 0000 0000 0000
00000060: 0000 0000 0000 0000 0000 0000 0000 0000
00000070: 0000 0000 0000 0000 0000 0000 0000 0000
00000080: 0000 0000 0000 0000 0000 0000 0000 0000
00000090: 0000 0000 0000 0000 0000 0000 0000 0000
000000a0: 0000 0000 0000 0000 0000 0000 0000 0000
000000b0: 0000 0000 0000 0000 0000 0000 0000 0000
000000c0: 0000 0000 0000 0000 0000 0000 0000 0000
000000d0: 0000 0000 0000 0000 0000 0000 0000 0000
000000e0: 0000 0000 0000 0000 0000 0000 0000 0000
000000f0: 0000 0000 0000 0000 0000 0000 0000 0000
0.0 0.0 0.0 0.0 0.0 0.0 0.0 0.0
0.0 0.0 0.0 0.0 0.0 0.0 0.0 0.0
0.0 0.0 0.0 0.0 0.0 0.0 0.0 0.0
0.0 0.0 0.0 0.0 0.0 0.0 0.0 0.0
0.0 0.0 0.0 0.0 0.0 0.0 0.0 0.0
0.0 0.0 0.0 0.0 0.0 0.0 0.0 0.0
0.0 0.0 0.0 0.0 0.0 0.0 0.0 0.0
0.0 0.0 0.0 0.0 0.0 0.0 0.0 0.0

network.2.weight f4 [32, 64]
00000000: 90ea d5bc 6067 26be 7826 cf3d f808 3f3d
00000010: 20b6 a93d 205b 15be 4cc7 e9bd 0423 d63d
00000020: a05e 7c3c 500c 153d c81f 0f3d 68fb 73bd
00000030: 683d 3d3d b47f 2b3e 72f3 31be 80ca 3dbe
00000040: a842 19be 6c29 54be 00dc 65bb 7063 42bd
00000050: ac1a b63d 1404 f43d 4426 4e3e f481 10be
00000060: 5a50 0ebe 32be 363e 6830 163d 74b1 b2bd
00000070: 4413 e83d 805d 823b 5816 d9bd c8e6 ff3d
00000080: 1cda eebd 60ea 4b3e 80fe a53d e494 64be
00000090: 9cb6 6bbe c04e c1bb 2c36 42be f407 ebbd
000000a0: c689 003e 3849 a33d 6c47 c93d 1830 2abe
000000b0: acaf 1fbe 88dc 5a3e c6fe 083e 002f b9bd
000000c0: bc84 75be e2e9 15be 2097 2ebe 24cb 83bd
000000d0: 0076 afbd 2a67 1a3e 1c95 8fbd 3015 7e3e
000000e0: 3aa3 393e 9840 bc3d 9c3d b53d 607f d0bd
000000f0: 00ce 873d 243a 683e e4ad d2bd d857 4b3d
00000100: d0ec 3e3e 0c03 3f3e 105b 45bd 2261 4fbe
00000110: d009 f53d 3c43 5bbe 5811 4dbd 22c2 613e
00000120: a8ed 7f3d 909a e5bd e0e7 70be 3c2a 9ebd
00000130: 3cce e23d 5cfe 0cbe 08c0 60be 70f4 7c3d
00000140: da8d 3abe dcfd b43d fc6d f4bd 6081 ef3d
00000150: 789c 573e a26f 58be 5e57 753e c0ad 723c
00000160: fe15 1fbe 0098 d1bd 9cd4 99bd c829 39bd
00000170: 408a 943c 50b7 3bbd c030 a6bd 40be 70bc
00000180: 7ee3 60be f0f4 09be fc4e 143e a8e0 773d
00000190: 5add 39be 424c 1dbe f0f7 cfbc b6dc 09be
000001a0: 3ad7 22be d4b1 54be 4472 7dbe a815 b8bd
000001b0: f0c1 d6bd f046 0fbe deb9 3c3e 3865 61bd
000001c0: ce9c 0a3e 20ac 40be 0890 d03d 60f7 b1bd
000001d0: 2a11 71be 0024 84bb f858 53bd 8092 1ebb
000001e0: dcf9 973d d855 96bd c0e3 073d 002e 8b3c
000001f0: fce5 ab3d 74c6 cd3d 306b 373e cc32 51be
00000200: 0454 2c3e 68eb fd3d d03a f6bc 00c2 7dba
00000210: 5a14 68be b04f 5ebd 60cf 26be 0cfa 4cbe
00000220: 8031 a4bd e4eb c4bd f85c d6bd d8cb 3abe
00000230: b4af 2c3e 28d9 603d 18ff 4dbe 2aa5 70be
00000240: dcce ba3d b40d c73d 588a 513d 782f c83d
00000250: 92ef 6ebe 52ee 393e 1a6f 25be 70df 76be
00000260: 44fe 923d 0065 f2bc 608e 42bc 00e9 76bd
00000270: b055 6ebd 9c33 9b3d a4f9 debd b830 87bd
00000280: f0f0 883c f841 603d c8e1 263e 9ef4 223e
00000290: 3828 bb3d 922c 1dbe 4ee0 60be f82d 4cbe
000002a0: 9c8e 2a3e 7ce8 f43d 1015 22bd b8be 4cbe
000002b0: d235 453e a0c3 a73d a8ca 05bd 3afb 063e
000002c0: 3883 643d 4c04 b8bd 4e0f 2bbe 4c67 723e
000002d0: 904e 9dbd 18b2 f4bd 1e4c 63be e80a 05be
000002e0: e882 103e 0467 febd 9cbd c13d 3e37 173e
000002f0: c672 08be 8408 bfbd 008a 0a3d d00f 763e
00000300: 80bb 4c3d 0c48 59be 80ae a3bc dca5 dfbd
00000310: 0ea5 203e 106f 813c 769d 36be b016 f03d
00000320: eca2 82bd 602a 423e ec36 273e bc84 943d
00000330: 2e01 163e 0074 c43a 0e79 00be 000c 50bc
00000340: 586d 093e 0028 10ba 6047 d3bd 9213 2cbe
00000350: 927e 353e cc7e 5e3e 8009 493d c0b4 163c
00000360: 5e0a 703e 14e6 0dbe a81c 23bd 4aa6 2e3e
00000370: bca9 3fbe a463 bdbd fcb9 c1bd d8ab 543e
00000380: 1c1a 5bbe 94cf c9bd e83b 85bd e046 953c
00000390: 98d7 6abe ac75 c2bd 8408 f43d a4c9 07be
000003a0: d002 22be b6cc 44be b200 163e d0af a23d
000003b0: 00be 8d3b 0cd7 bebd 00eb c9bd 6cbf 523e
000003c0: 50b1 1c3d 8ade 7d3e 4e85 43be 1470 1bbe
000003d0: 2eb9 02be 4059 653e acd3 6fbe 1491 c53d
000003e0: 4038 e4bb 387e 6cbd 38b8 6f3d f058 eebd
000003f0: f643 223e 7423 523e c4d2 62be e0ee ae3d
-0.026112825 -0.16250372 0.10114759 0.046639413 0.08286691 -0.14585543 -0.11414966 0.104558975
0.01540342 0.036388695 0.03494242 -0.05956593 0.04620114 0.16747934 -0.17378023 -0.18534279
-0.14966834 -0.20718926 -0.0035073757 -0.047458112 0.08891806 0.1191484 0.20131785 -0.14112073
-0.13897839 0.17845991 0.036667258 -0.08725253 0.113317996 0.003978431 -0.10599965 0.1249519
-0.11662695 0.19913626 0.08105183 -0.22322422 -0.23018879 -0.0058992803 -0.18965977 -0.11476126
0.12552556 0.0797295 0.09828076 -0.16619909 -0.15594357 0.21373188 0.13378438 -0.09042168
-0.23976415 -0.1464 -0.17049837 -0.064352304 -0.085674286 0.15078416 -0.07010862 0.2481277
0.18128672 0.09192008 0.08849642 -0.10180545 0.06631088 0.22678429 -0.10287073 0.04964432
0.18645024 0.18653506 -0.048182547 -0.20251897 0.11964762 -0.21412367 -0.05006537 0.22046712
0.062482506 -0.11211121 -0.23525953 -0.07722899 0.11074492 -0.13768905 -0.21948254 0.06175655
-0.18218175 0.08837482 -0.1193504 0.11694598 0.21055782 -0.21136335 0.23959109 0.014811933
-0.15535733 -0.1023407 -0.07511255 -0.04520586 0.018132329 -0.045829117 -0.08114767 -0.014693797
-0.21961781 -0.13472342 0.14483255 0.060516983 -0.18150845 -0.15361121 -0.02538678 -0.13463101
-0.15902415 -0.20770961 -0.2475062 -0.089885056 -0.104862094 -0.13991904 0.18430278 -0.05502817
0.13536379 -0.1881566 0.10183722 -0.08689761 -0.23541704 -0.004032612 -0.05159852 -0.0024196208
0.07420704 -0.07340592 0.033176184 0.016989708 0.083934754 0.100476176 0.17911983 -0.20429534
0.16828924 0.12398416 -0.03005734 -0.00096800923 -0.22664014 -0.054275215 -0.16290045 -0.2001726
-0.08017254 -0.09615305 -0.10466951 -0.18241823 0.168639 0.054894596 -0.20116842 -0.23500505
0.091214865 0.097194105 0.051157326 0.09774679 -0.23333576 0.18157318 -0.16155663 -0.24108672
0.071774036 -0.029589176 -0.011874765 -0.0602808 -0.058187187 0.07578203 -0.10887459 -0.06601089
0.01671645 0.054750413 0.16297066 0.15913627 0.091385305 -0.15349033 -0.21960565 -0.1993941
0.16655964 0.119584054 -0.039570868 -0.19994628 0.19258812 0.081916094 -0.03266397 0.13181773
0.055789202 -0.089851946 -0.16705057 0.23672217 -0.07681 -0.11948031 -0.22197005 -0.12992442
0.14112437 -0.124219924 0.09459993 0.14767167 -0.13325033 -0.09327796 0.033823013 0.2402947
0.0499835 -0.2121889 -0.019980669 -0.10920307 0.15687963 0.015800029 -0.17833504 0.11723077
-0.06378731 0.18961477 0.16329545 0.072518796 0.14648888 0.0014988184 -0.12546179 -0.0126981735
0.13420618 -0.00054991245 -0.10316348 -0.1680434 0.17724064 0.21728057 0.049081326 0.009198368
0.23441455 -0.13857299 -0.03982225 0.17055622 -0.18717092 -0.092475206 -0.09459302 0.20768678
-0.21396679 -0.098540455 -0.06505567 0.018222272 -0.22933805 -0.094951004 0.11915687 -0.13260514
-0.15821385 -0.19218716 0.14648703 0.0794369 0.0043256283 -0.09318361 -0.09859276 0.20580834
0.038255036 0.24791923 -0.1909382 -0.15179473 -0.12765953 0.22397327 -0.2342059 0.09646812
-0.0069647133 -0.05773756 0.058525294 -0.11638057 0.15846238 0.20521337 -0.22150713 0.085416555

network.2.bias f4 [32]
00000000: 0000 0000 0000 0000 0000 0000 0000 0000
00000010: 0000 0000 0000 0000 0000 0000 0000 0000
00000020: 0000 0000 0000 0000 0000 0000 0000 0000
00000030: 0000 0000 0000 0000 0000 0000 0000 0000
00000040: 0000 0000 0000 0000 0000 0000 0000 0000
00000050: 0000 0000 0000 0000 0000 0000 0000 0000
00000060: 0000 0000 0000 0000 0000 0000 0000 0000
00000070: 0000 0000 0000 0000 0000 0000 0000 0000
0.0 0.0 0.0 0.0 0.0 0.0 0.0 0.0
0.0 0.0 0.0 0.0 0.0 0.0 0.0 0.0
0.0 0.0 0.0 0.0 0.0 0.0 0.0 0.0
0.0 0.0 0.0 0.0 0.0 0.0 0.0 0.0

network.4.weight f4 [16, 32]
00000000: 77a3 b13e 203f 46bd a014 7cbc 3c00 af3d
00000010: 566e 0c3e 1e5c 513e 8d2b 83be b8e6 51bd
00000020: d0af 213d 4094 ad3d c550 0abe f993 873e
00000030: dad7 403e 84a4 9bbe a2c7 18be d821 7e3d
00000040: 18c8 8dbd 87d7 32be 7b70 8b3e 0eb6 793e
00000050: e80d b53d 860e 703e 7aef 4f3e 5637 93be
00000060: 87e6 ae3e f868 fa3d 7d7c b33e d29b 433e
00000070: 86e1 5b3e 109b dabd 1083 913c 111b aabe
00000080: 93c7 10be 121c a8be c686 733e ddf9 8ebe
00000090: 1fa3 b23e d5bf 0ebe 3a03 3a3e 281f 72be
000000a0: 9d94 803e 91f7 7abe 2ef2 453e 85b1 69be
000000b0: 0c83 9d3d 2d57 8e3e e0f7 a93d b496 78be
000000c0: 8504 8b3e 3afc 61be 6ba9 4cbe 28dc 65be
000000d0: d092 7bbd fcfb 953d bff5 ac3e 2b0c 88be
000000e0: 6a9b 503e f068 81bc 2c02 b03d b8ac 25bd
000000f0: 6e0d 1d3e f711 1cbe 2c05 b1bd c04c a73b
00000100: a7e3 3abe 8f49 2fbe 5fea b33e b6b6 6dbe
00000110: 904c adbc e0a3 b4bd d933 a03e 8227 113e
00000120: 204e b13c ef5e 923e b87c 833d e8e7 3c3d
00000130: e830 b4bd 605b 44bc 3824 473d 8458 47be
00000140: 2fd7 95be 8634 253e 40a2 e0bd 0757 87be
00000150: 4515 41be 402b 3e3c d799 a8be 26af 2dbe
00000160: 3628 333e 29a5 79be e155 913e 5486 b4be
00000170: 4044 bcbc be50 a8be 3d4f a83e 90df e23c
00000180: fd3c 9f3e 7287 283e a627 0cbe 7231 623e
00000190: a0a0 41bd c65a 553e a673 97be 56f3 5abe
000001a0: 3e36 353e e0b4 fb3d 428a 503e 9391 9b3e
000001b0: 4711 913e 130a 18be 54d4 803d 5ded 83be
000001c0: 7c08 a0bd 90c2 a13c af97 87be f831 54bd
000001d0: d576 a6be c039 a83b a833 75be c204 a1be
000001e0: 50e1 ba3d c454 98be 506b f33c 54d7 28be
000001f0: f89e d3bd 5b0f 6ebe b47c 9bbd 4016 3ebe
00000200: 0ada 0e3e b658 783e 10e5 ce3d cedc 2b3e
00000210: 70cf 92bd 641e d43d 475b 913e 169d 5a3e
00000220: 6f71 913e b5ed 9b3e a05f 77bc ef9e 92be
00000230: 8854 e5bd 8401 88be 7977 8fbe 2d02 9fbe
00000240: fb5a 903e 80ab 6dbe 90b3 54be 8c80 acbe
00000250: 1b68 27be 18e4 2fbe 5960 913e 1c0e 26be
00000260: d8b5 8b3d 907f 1e3d bef5 0f3e de69 f0bd
00000270: 17fe 3abe b06b 3f3d f4a2 91bd ef69 a1be
00000280: 1906 8ebe 101d 7bbe a928 a7be c36f 823e
00000290: e4e8 1ebe 0ff8 a13e cab6 b0be 0804 fabd
000002a0: bb0b 80be 42f3 41be c021 873b 34f0 27be
000002b0: f08a 953c 5c21 89bd ce6b 5f3e 21da a73e
000002c0: c7a4 a13e 8309 a53e 1e3b 033e d054 eb3d
000002d0: 7055 a5bd db3c ae3e 5338 4abe 5089 c43c
000002e0: 947c b9bd 06ab 6d3e 618e 4bbe f245 463e
000002f0: 26d0 263e eefc 1c3e e09d db3d 14c4 893d
00000300: 8262 8ebe 4ad2 3dbe ea00 7d3e c168 883e
00000310: 0258 49be e98a 843e ce1c 353e 68a4 08bd
00000320: 3b83 9b3e 3621 e3bd b372 34be 13f6 b23e
00000330: a019 08be 13a5 a83e 5d66 05be a7be a43e
00000340: eda3 9b3e 7c5d a7bd 80c1 1fbc 3b23 903e
00000350: 1c91 8bbe 5928 a43e 1ca2 efbd 4892 adbd
00000360: 25d4 65be d671 703e 044c 8cbe c0b5 cebd
00000370: 7d17 a83e 4095 dd3c d90b 883e a9ea 72be
00000380: 3e0d 60be 980e a1be 58cd 24bd c07d f0bb
00000390: 3b8d 843e 70c9 193d 6745 81be 8025 a13c
000003a0: 05d8 a03e 3840 1dbe fddd a4be cdbd 7dbe
000003b0: 8ced 92be 6201 04be 4f39 8ebe 80a9 56be
000003c0: 86bc 433e 102a c33c 2eb0 463e 90b3 2ebe
000003d0: 7dfb a5be c852 083e 5a49 323e 0ed3 73be
000003e0: 8c4a 85be e066 f3bc 5e43 5abe 9be5 9f3e
000003f0: 9aaa 97be 00d5 8e3d e6b2 7e3e 5a18 17be
0.34695026 -0.048400044 -0.015385777 0.085449666 0.13713965 0.20445296 -0.25619164 -0.05124542
0.03947431 0.08475542 -0.13507374 0.26480082 0.18832341 -0.30398953 -0.14919904 0.062043995
-0.069229305 -0.1746503 0.27234253 0.24385855 0.08840543 0.2344304 0.20306197 -0.28753155
0.34160253 0.122270525 0.35055915 0.1910241 0.21472749 -0.10674107 0.01776269 -0.33223775
-0.14138632 -0.32833916 0.2378188 -0.27925006 0.34890077 -0.13940366 0.18165293 -0.23644698
0.25113383 -0.24508502 0.19330665 -0.22821625 0.07691011 0.27800885 0.082992315 -0.24276239
0.27151886 -0.22068873 -0.19986503 -0.22447264 -0.06141931 0.07323453 0.3378124 -0.26571783
0.20371786 -0.015797108 0.08594164 -0.04044792 0.15337154 -0.15241228 -0.086435646 0.005105585
-0.18250905 -0.17117904 0.35139748 -0.2321423 -0.021154672 -0.08820319 0.31289557 0.14175227
0.021643698 0.28588054 0.064202726 0.0461196 -0.087983906 -0.011984676 0.048618525 -0.1946736
-0.29265735 0.16133317 -0.10968447 -0.26433584 -0.1885577 0.011606991 -0.3292987 -0.16961345
0.17495808 -0.2437941 0.28385833 -0.35258734 -0.022981763 -0.328741 0.32872954 0.027694494
0.31101218 0.16457918 -0.13687 0.22089174 -0.047272325 0.20835409 -0.2958042 -0.21381888
0.17696473 0.122903585 0.20365241 0.30384502 0.28333494 -0.14847593 0.062904984 -0.2576703
-0.07814118 0.019746095 -0.26482913 -0.051805466 -0.32512537 0.0051338375 -0.23945487 -0.31448942
0.09125006 -0.2975217 0.029714257 -0.16488391 -0.10333055 -0.23248045 -0.075921446 -0.18563175
0.13950363 0.2425259 0.10102284 0.16783449 -0.07168472 0.10357359 0.28389952 0.21348986
0.28406855 0.30454794 -0.015098482 -0.28636882 -0.11197764 -0.26563656 -0.28020838 -0.31056347
0.28194413 -0.23209953 -0.20771623 -0.33691823 -0.16348307 -0.17176855 0.2839382 -0.1621632
0.06821793 0.03869587 0.14058587 -0.117389426 -0.1826099 0.04673356 -0.07111159 -0.31526133
-0.27739027 -0.24522805 -0.3264821 0.25475892 -0.15518528 0.31634566 -0.34514457 -0.122078
-0.2500895 -0.18940452 0.0041238964 -0.16400224 0.018254727 -0.06695816 0.21818468 0.32783607
0.31571028 0.3223382 0.1281552 0.11490786 -0.080729365 0.34030804 -0.19748048 0.023991257
-0.090569645 0.23209772 -0.19878532 0.1936262 0.1629034 0.1533086 0.10723472 0.06726852
-0.2780953 -0.1853725 0.2470738 0.2664242 -0.19662479 0.2588723 0.1768677 -0.033359915
0.30373558 -0.11090319 -0.1762188 0.34953365 -0.13291025 0.32938442 -0.1302733 0.32176706
0.30398503 -0.081721276 -0.009750724 0.2815188 -0.27259147 0.32062033 -0.11700842 -0.084751666
-0.22444208 0.23480925 -0.27401745 -0.1009326 0.3283042 0.027048707 0.2657154 -0.23722328
-0.21880051 -0.31456447 -0.040234894 -0.0073392093 0.25889 0.03754562 -0.25248262 0.019671202
0.3141481 -0.15356529 -0.32200614 -0.24779435 -0.2869686 -0.12891153 -0.27778098 -0.20963097
0.19114885 0.023823768 0.19403145 -0.17060685 -0.32418433 0.13312829 0.17410794 -0.2381098
-0.26033437 -0.02971214 -0.21314761 0.31229863 -0.29622346 0.0697422 0.24872932 -0.14755383

network.4.bias f4 [16]
00000000: 0000 0000 0000 0000 0000 0000 0000 0000
00000010: 0000 0000 0000 0000 0000 0000 0000 0000
00000020: 0000 0000 0000 0000 0000 0000 0000 0000
00000030: 0000 0000 0000 0000 0000 0000 0000 0000
0.0 0.0 0.0 0.0 0.0 0.0 0.0 0.0
0.0 0.0 0.0 0.0 0.0 0.0 0.0 0.0

network.6.weight f4 [1, 16]
00000000: 2652 f5be a0ce a4bc b352 8bbe ccdf a5be
00000010: cad7 05bf 2808 b3bd 2a9a 2fbe aa43 a73e
00000020: e83f 03be 7ca1 d03e d460 2a3e d067 19be
00000030: 4484 c0be 6c3e d23e 5e04 1dbe c09d ac3c
-0.47914237 -0.020118058 -0.27211532 -0.32397306 -0.5228239 -0.0874179 -0.17148653 0.3266881
-0.12817347 0.40748203 0.166385 -0.14981008 -0.3760091 0.4106325 -0.15333697 0.021071315
